NN_Func_Approx/Dimension_Encoding_MLP/Vision_DimMixer/models/mlp_mixer_fmnist_v0.pth (torch, 275183 bytes, 64 tensors)

channel_change.weight f4 [16, 16]
0.13397615 0.31005257 0.22889142 0.13216667 0.2322063 -0.07251956 0.3095763 0.15675682
0.022004599 -0.19442578 -0.058259822 -0.06351209 -0.21704671 0.059473805 0.021557886 -0.15801866
-0.05326522 0.19466563 0.4226369 0.06927913 0.062024664 0.39005816 0.34946004 -0.12766059
0.12908721 0.368458 0.17763455 -0.010436065 0.037952565 0.18639024 0.30902913 -0.23115382
0.028677078 0.27329776 -0.19724083 -0.061265215 -0.2516539 -0.19355474 -0.49386185 -0.019799413
-0.17083949 0.21411723 -0.019269504 -0.045701493 0.14444408 0.03330182 0.33661276 -0.20122677
0.06859745 0.08372588 -0.19177957 0.09944245 0.098868705 0.098343395 -0.21899366 0.019769086
-0.011523827 -0.17042 -0.30719182 -0.28991532 0.3630038 -0.18794702 -0.06804271 -0.1976614
-0.15529157 -0.23752536 0.27580163 0.27090576 -0.16991019 -0.2654979 -0.2057899 0.0960148
-0.060841672 0.24428742 -0.22980194 0.08549132 -0.100817926 -0.1563861 -0.20238338 -0.2641085
-0.13487498 -0.34448045 0.27044764 0.3346592 -0.4163712 -0.014151981 0.11599027 0.17110825
-0.30413076 -0.3547728 -0.03256342 0.018232096 -0.21355674 -0.23936996 0.40542248 0.355787
-0.046966784 -0.06639391 -0.18728034 0.28765714 0.2210302 0.1854478 -0.045636646 0.40683576
0.06886172 -0.25749496 0.21591717 0.3164796 0.1518737 -0.30574107 -0.045362297 0.28859285
0.24884295 -0.14968231 -0.4602267 -0.38912028 0.3193473 -0.0055738706 0.20972653 -0.047652654
0.033789985 0.17681476 -0.15239026 -0.11903625 0.16080241 0.057736445 0.26054525 0.015876068
0.01622981 0.29412737 -0.19473393 -0.27312514 -0.21809734 -0.13945925 0.07203105 0.2306494
0.34983265 0.08560714 -0.006154507 0.15362509 0.31274176 0.28521937 -0.06764571 0.3721746
-0.22312137 0.09154017 0.0015346757 -0.23779246 -0.103366934 -0.2721705 0.08613197 -0.0067331204
-0.11548191 -0.18606377 0.19670856 -0.061767567 0.36507937 -0.07998013 -0.22210088 0.23039627
-0.39533162 -0.37200007 -0.059753347 -0.25361526 -0.3650324 -0.16207123 0.0033616135 0.27767274
-0.2219994 -0.02422109 0.3251007 0.26712742 0.05056874 0.18923014 -0.08214944 -0.11675764
0.008508713 0.12051409 0.28198814 0.16473478 -0.13848045 0.112592064 0.36372277 0.19576488
-0.43017748 -0.20564725 0.20431285 -0.1863664 -0.3061474 -0.18991333 0.049387015 0.008978259
-0.092296205 -0.19247067 -0.078657575 -0.36525857 0.15936853 0.120270446 -0.35163343 -0.5747798
0.16272123 0.017864104 -0.23481785 -0.14787863 0.25683483 0.070209414 0.18874386 -0.063272215
-0.23969027 -0.18215828 0.008679688 0.4265733 0.21290931 -0.17112686 0.10282965 0.17735235
0.24407512 0.1566724 -0.20691246 0.19069597 0.035770223 0.17138872 -0.32749644 0.17039518
0.3120817 -0.06427782 0.17080063 0.061416764 0.325016 -0.3751958 -0.018380584 -0.045164008
-0.25554618 -0.21037646 0.28251874 0.089966826 -0.12475535 -0.24628128 0.3067888 0.2479774
0.23011386 -0.066104546 0.18680556 0.27191025 -0.04731295 0.25194147 -0.07166563 0.26189858
0.19282082 -0.21597716 -0.30718142 -0.10264918 -0.14370063 -0.48839334 -0.2758808 0.24809124
00000000: 0b31 093e 36bf 9e3e 8362 6a3e b356 073e
00000010: 7dc7 6d3e 2385 94bd c980 9e3e dc84 203e
00000020: fd42 b43c 8d17 47be daa1 6ebd a012 82bd
00000030: 7e41 5ebe ce9a 733d 2a9a b03c a5cf 21be
00000040: a22c 5abd 6d56 473e dd63 d83e 37e2 8d3d
00000050: 930d 7e3d b4b5 c73e 6dec b23e 75b9 02be
00000060: 702f 043e 87a6 bc3e d5e5 353e 07fc 2abc
00000070: 2674 1b3d 15dd 3e3e 1139 9e3e 96b3 6cbe
00000080: 31ec ea3c afed 8b3e 80f9 49be 3cf1 7abd
00000090: c8d8 80be 3733 46be 76db fcbe 6132 a2bc
000000a0: 8cf0 2ebe 8c41 5b3e 14db 9dbc 7d31 3bbd
000000b0: 26e9 133e 7d67 083d 8258 ac3e 640e 4ebe
000000c0: d27c 8c3d 7978 ab3d dd61 44be 7ca8 cb3d
000000d0: ad7b ca3d 4368 c93d e03f 60be c7f2 a13c
000000e0: 6fce 3cbc 9582 2ebe 3f48 9dbe c86f 94be
000000f0: a2db b93e 2f75 40be fa59 8bbd c067 4abe
00000100: c104 1fbe d939 73be df35 8d3e 29b4 8a3e
00000110: f0fc 2dbe 57ef 87be 96ba 52be 68a3 c43d
00000120: 1e35 79bd 7b26 7a3e 3351 6bbe 1316 af3d
00000130: a179 cebd ae23 20be 973d 4fbe 3b39 87be
00000140: ab1c 0abe be5f b0be 1d78 8a3e 7358 ab3e
00000150: 9b2e d5be b6dd 67bc 4f8c ed3d 0037 2f3e
00000160: 07b7 9bbe c8a4 b5be 3861 05bd 7a5b 953c
00000170: 9eae 5abe 661d 75be 8993 cf3e b729 b63e
00000180: 3e60 40bd 88f9 87bd 6bc6 3fbe cc47 933e
00000190: be55 623e 07e6 3d3e 7eed 3abd c74c d03e
000001a0: 6007 8d3d 61d6 83be 6419 5d3e 9d09 a23e
000001b0: c784 1b3e 188a 9cbe d1cd 39bd 71c2 933e
000001c0: b0d0 7e3e 5246 19be d6a2 ebbe c63a c7be
000001d0: 7d81 a33e 04a5 b6bb 8dc2 563e 6e2f 43bd
000001e0: 5e67 0a3d ee0e 353e 310c 1cbe 47c9 f3bd
000001f0: 63a9 243e 0d7d 6c3d 3066 853e 870e 823c
00000200: 61f4 843c dd97 963e 5568 47be 0fd7 8bbe
00000210: e954 5fbe 68ce 0ebe 0485 933d 5b2f 6c3e
00000220: 441d b33e cc52 af3d bfab c9bb e54f 1d3e
00000230: b01f a03e 4608 923e d689 8abd ab8d be3e
00000240: ee79 64be 6a79 bb3d 2c27 c93a de7f 73be
00000250: 0bb2 d3bd ef59 8bbe f565 b03d 82a1 dcbb
00000260: c881 ecbd 8087 3ebe f86d 493e fdff 7cbd
00000270: afeb ba3e 9fcc a3bd 6a6e 63be 00ed 6b3e
00000280: e868 cabe cb76 bebe edbf 74bd dcd9 81be
00000290: 87e5 babe 00f6 25be 844e 5c3b 1f2b 8e3e
000002a0: d053 63be 4f6b c6bc 9973 a63e edc4 883e
000002b0: 2b21 4f3d 8cc5 413e f73d a8bd a11e efbd
000002c0: 2168 0b3c 17d0 f63d c060 903e 3cb0 283e
000002d0: d2cd 0dbe ab96 e63d df39 ba3e 9776 483e
000002e0: 3940 dcbe 3195 52be 6337 513e d5d6 3ebe
000002f0: 5abf 9cbe a478 42be 0a4a 4a3d 8c19 133c
00000300: cb05 bdbd 0817 45be 3917 a1bd 2c03 bbbe
00000310: 8131 233e 5a50 f63d 4c09 b4be c524 13bf
00000320: 65a0 263e be57 923c 1774 70be 7f6d 17be
00000330: db7f 833e f4c9 8f3d 1246 413e dd94 81bd
00000340: 5e71 75be b387 3abe 4035 0e3c d167 da3e
00000350: e604 5a3e e13b 2fbe 5a98 d23d db9b 353e
00000360: d4ee 793e bb6e 203e dce0 53be ce45 433e
00000370: cc83 123d 8680 2f3e 9dad a7be 137c 2e3e
00000380: 2cc9 9f3e 17a4 83bd 5ce6 2e3e 2590 7b3d
00000390: 7f68 a63e aa19 c0be e192 96bc e5fd 38bd
000003a0: f3d6 82be ed6c 57be 4ca6 903e 8740 b83d
000003b0: bc7f ffbd 2931 7cbe 6c13 9d3e caed 7d3e
000003c0: f8a2 6b3e d261 87bd f549 3f3e d237 8b3e
000003d0: 39cb 41bd 79fe 803e 6ec5 92bd 9217 863e
000003e0: d272 453e 1e29 5dbe e246 9dbe bc39 d2bd
000003f0: 4226 13be b10e fabe 4040 8dbe a10b 7e3e

channel_change.bias f4 [16]
-0.041051358 -0.19845642 -0.01714572 -0.20665666 0.04032394 -0.033313602 -0.24977198 0.047654156
-0.09760845 0.13645798 0.0030249981 0.10204046 0.16211046 0.05825387 0.16967137 0.023987252
00000000: 7825 28bd 2938 4bbe 2e75 8cbc ce9d 53be
00000010: b72a 253d d873 08bd 3ac4 7fbe 0131 433d
00000020: f0e6 c7bd a4bb 0b3e 0c3f 463b 97fa d03d
00000030: 4900 263e 9c9b 6e3d 55be 2d3e ea80 c43c

mixer_blocks.0.ln0.weight f4 [16]
0.83497787 0.92562497 0.8423714 0.7708663 0.9361367 0.965765 0.92595714 0.9510979
0.9912487 0.826883 0.89238733 0.9797396 0.8463693 0.9262777 0.865174 0.81339407
00000000: 1cc1 553f c2f5 6c3f a7a5 573f 7e57 453f
00000010: a8a6 6f3f 603c 773f 870b 6d3f 277b 733f
00000020: 7ac2 7d3f 9bae 533f 7f73 643f 37d0 7a3f
00000030: a9ab 583f 8920 6d3f 0b7c 5d3f 983a 503f

mixer_blocks.0.ln0.bias f4 [16]
-0.096769385 -0.18296482 0.18779023 0.1969767 0.11537776 0.06758807 0.026904698 -0.09645797
-0.25173798 -0.0063815485 0.13009493 -0.1926889 0.025206402 -0.047269586 -0.2631264 0.08784287
00000000: 072f c6bd 215b 3bbe 154c 403e 43b4 493e
00000010: 2d4b ec3d 9d6b 8a3d 3e67 dc3c c28b c5bd
00000020: cde3 80be 4f1c d1bb 9b37 053e 3d50 45be
00000030: a87d ce3c c19d 41bd 81b8 86be f6e6 b33d

mixer_blocks.0.mlp_patch.mlp.0.weight f4 [98, 49]
0.07788242 0.19812585 0.22171725 -0.1677779 -0.046028167 -0.051539425 0.036893044 0.02744959
0.022727435 0.035597157 -0.1562852 -0.034088846 -0.117097266 -0.097775646 -0.16837151 -0.1965786
0.003690364 0.11460465 0.08391719 0.029853394 -0.19156168 -0.0328376 -0.039671414 -0.06592974
-0.14004073 -0.044134766 -0.0056411824 -0.04943812 0.23325072 -0.07414095 -0.032225866 -0.09783892
0.005174402 -0.1067114 0.15889071 0.09447177 -0.17666857 -0.061495848 0.026461799 0.045821216
0.07378289 0.02506333 -0.049785357 0.2900347 -0.027479332 -0.18498611 0.16712919 0.1348774
0.20739679 -0.08654413 0.101163134 0.24425909 -0.04842222 0.09479758 -0.054990873 -0.076476604
-0.11822773 -0.05304609 -0.07064086 -0.10016491 0.12895323 -0.008097537 0.08547519 0.092530385
-0.095722765 -0.16518494 -0.05777514 -0.011776539 -0.034924045 -0.031443194 -0.15652959 -0.25231007
0.11814079 0.11694674 -0.00842016 -0.075704955 0.09287434 0.1129033 -0.017158052 -0.13861674
0.12354054 0.13820697 -0.1595841 0.068422526 0.1356506 -0.113171116 0.00964578 0.057190422
0.11402435 0.19084103 0.026558418 -0.10971005 -0.017649349 -0.182454 -0.065956205 -0.06787671
0.031166676 0.13467254 -0.002739573 0.14308897 0.08277194 -0.08474174 -0.25729713 0.07231429
0.11399539 -0.11292762 -0.11979432 -0.058607828 0.11187636 0.073721685 -0.048063856 -0.028864382
0.063891985 0.1526123 0.0118387025 0.048476696 0.06363153 0.19227175 -0.05552383 0.025988504
0.10302508 -0.12241929 -0.0022294675 -0.02838298 -0.063894324 0.032291766 -0.0088650305 0.14614718
-0.113607615 0.12510553 -0.0103202 0.06749843 -0.056561112 -0.09373662 0.029410174 -0.14619972
0.1257219 -0.14191636 0.026040703 -0.00624535 -0.0865803 -0.10282971 -0.17198391 0.25055966
0.11539745 0.1152794 0.055634256 0.02628148 0.1765776 -0.21503939 0.07336057 0.13132876
0.09150027 -0.17679761 0.152415 0.054039534 -0.035319358 0.014014051 0.017184157 -0.17808989
-0.031530183 -0.122974254 0.12634903 -0.15756565 0.027409658 -0.07597988 -0.03213172 0.1292128
-0.08687919 -0.015323383 0.11449817 0.09997484 0.13320656 -0.10372049 -0.21948135 0.10332636
-0.11013743 -0.047011066 0.0056227306 -0.031886477 0.020985574 -0.0152704995 -0.04178228 -0.09419766
0.024144972 -0.119604744 0.07295145 0.089550965 0.075797625 -0.033627268 0.047228955 0.19457915
0.0024801784 -0.26002988 0.01071035 -0.010132933 0.13746022 -0.19239916 0.14491065 -0.1675009
0.13871242 -0.05997156 -0.013665097 0.09503801 -0.25650164 -0.0041253325 0.032274935 0.10522025
-0.20182884 0.10580177 -0.10923215 0.10599936 -0.08839258 0.038956355 -0.09619201 0.0023580324
-0.012486355 0.12531964 -0.061233766 -0.011087676 0.22317033 -0.116891935 -0.036501843 0.06597274
0.061678097 -0.042864382 -0.010572361 0.051328156 0.09327246 -0.14826804 -0.18553971 -0.03330567
0.107617304 0.13617232 -0.09247148 -0.18712439 0.050173815 -0.08654868 0.1305081 -0.082255304
0.06654489 0.11712591 0.027670143 -0.12768155 -0.08735714 0.06803728 -0.007498936 -0.01746138
-0.048253562 -0.03231201 0.019286612 0.14438038 -0.06396678 -0.02009593 -0.071716644 0.107847445
00000000: d180 9f3d 81e1 4a3e d909 633e f8cd 2bbe
00000010: 0888 3cbd 011b 53bd 291d 173d f6dd e03c
00000020: e32e ba3c 53ce 113d 3a09 20be bfa0 0bbd
00000030: b1d0 efbd 993e c8bd 9569 2cbe e74b 49be
00000040: 09da 713b d8b5 ea3d c7dc ab3d 1b8f f43c
00000050: bf28 44be b880 06bd 7e7e 22bd 2c06 87bd
00000060: d666 0fbe a8c6 34bd abd9 b8bb a07f 4abd
00000070: 47d9 6e3e 36d7 97bd 45ff 03bd c65f c8bd
00000080: 088e a93b 828b dabd 3fb4 223e 6a7a c13d
00000090: 9be8 34be 12e3 7bbd 6ac6 d83c 07af 3b3d
000000a0: 7c1b 973d 9d51 cd3c bbeb 4bbd 6e7f 943e
000000b0: 561c e1bc 006d 3dbe ea23 2b3e 4d1d 0a3e
000000c0: d35f 543e 0d3e b1bd 9e2e cf3d 0e1f 7a3e
000000d0: 6156 46bd 3c25 c23d 1c3e 61bd c49f 9cbd
000000e0: 6121 f2bd db46 59bd 28ac 90bd 4323 cdbd
000000f0: 510c 043e 88ab 04bc 9e0d af3d 9280 bd3d
00000100: 4c0a c4bd 3e26 29be a0a5 6cbd 62f2 40bc
00000110: 840c 0fbd 94ca 00bd 4b49 20be c92e 81be
00000120: ccf3 f13d c681 ef3d b6f4 09bc 330b 9bbd
00000130: e734 be3d d839 e73d 0b8f 8cbc 8cf1 0dbe
00000140: d302 fd3d 2186 0d3e 046a 23be 1c21 8c3d
00000150: fee7 0a3e 42c6 e7bd 5509 1e3c 8140 6a3d
00000160: 9985 e93d d56b 433e 0a91 d93c aaaf e0bd
00000170: 5e95 90bc 39d5 3abe 0c14 87bd f202 8bbd
00000180: 4251 ff3c 99e7 093e 688a 33bb ea85 123e
00000190: 5684 a93d 148d adbd 73bc 83be 8419 943d
000001a0: 6a76 e93d 9946 e7bd b956 f5bd c30e 70bd
000001b0: 6f1f e53d 65fb 963d 9bde 44bd ff74 ecbc
000001c0: cdd9 823d 6646 1c3e 1ef7 413c 808f 463d
000001d0: 3f51 823d e3e2 443e f56c 63bd d8e5 d43c
000001e0: d0fe d23d f7b6 fabd 421c 12bb 6c83 e8bc
000001f0: 07db 82bd 5f44 043d a23e 11bc 9ba7 153e
00000200: 1cab e8bd aa1b 003e 0e16 29bc 9e3c 8a3d
00000210: a0ac 67bd fcf8 bfbd 9bed f03c 61b5 15be
00000220: 3ebd 003e 8652 11be 5053 d53c cba5 ccbb
00000230: 0351 b1bd 6298 d2bd 8d1c 30be 5b49 803e
00000240: 8055 ec3d 9b17 ec3d bfe0 633d 424c d73c
00000250: c2d0 343e 4933 5cbe 113e 963d 0c7b 063e
00000260: 7e64 bb3d 6f0a 35be ae12 1c3e 8f58 5d3d
00000270: 08ab 10bd 319b 653c cac5 8c3c 325d 36be
00000280: cb25 01bd edd9 fbbd a461 013e e458 21be
00000290: 388a e03c 579b 9bbd 8d9c 03bd 5c50 043e
000002a0: b7ed b1bd ed0e 7bbc 047e ea3d 9cbf cc3d
000002b0: 4d67 083e 696b d4bd b8bf 60be c59c d33d
000002c0: bc8f e1bd ad8e 40bd e23e b83b 659b 02bd
000002d0: f0e9 ab3c 1e31 7abc e523 2bbd b4ea c0bd
000002e0: adcb c53c 55f3 f4bd 9267 953d 7f66 b73d
000002f0: c93b 9b3d bfbc 09bd 2673 413d c23f 473e
00000300: 7d8a 223b a322 85be 777a 2f3c 9a04 26bc
00000310: 5fc2 0c3e 4904 45be 7563 143e 5b85 2bbe
00000320: a10a 0e3e bda4 75bd 92e3 5fbc 4aa3 c23d
00000330: 2f54 83be cc2d 87bb b932 043d b77d d73d
00000340: 38ac 4ebe 99ae d83d 1bb5 dfbd 3116 d93d
00000350: 2b07 b5bd b390 1f3d 5100 c5bd 3889 1a3b
00000360: 9293 4cbc cb53 003e 42d0 7abd 15a9 35bc
00000370: c386 643e 0a65 efbd f582 15bd b71c 873d
00000380: 2ca2 7c3d 9092 2fbd b237 2dbc 793d 523d
00000390: a205 bf3d 94d3 17be 1ffe 3dbe 876b 08bd
000003a0: 7666 dc3d c270 0b3e b061 bdbd 899d 3fbe
000003b0: 0f83 4d3d 6f40 b1bd eaa3 053e 7875 a8bd
000003c0: b048 883d b6df ef3d 7fac e23c f4be 02be
000003d0: 4de8 b2bd 2157 8b3d a2b9 f5bb 2b0b 8fbc
000003e0: 87a5 45bd 9959 04bd f5fe 9d3c 73d8 133e
000003f0: 0401 83bd 38a0 a4bc 2de0 92bd 1fdf dc3d

mixer_blocks.0.mlp_patch.mlp.0.bias f4 [98]
-0.013060131 -0.23182565 -0.0761735 -0.07289581 -0.036351565 -0.07790286 -0.10112437 -0.015000019
-0.17721644 -0.24324891 -0.34752652 -0.061559994 -0.13975433 -0.25017786 -0.0864419 -0.13331015
0.0012247582 0.04188757 0.048842363 -0.1606214 -0.010446305 -0.22870897 -0.033575032 -0.048063707
-0.117728226 0.0066576777 -0.10634114 -0.21130338 0.037688076 -0.15736026 -0.17089337 -0.17576332
-0.10884829 -0.27734315 -0.19174817 -0.2885583 -0.21180794 -0.050913375 -0.14578542 -0.0840741
0.047284294 -0.13819322 -0.24404971 -0.06689404 -0.08753439 -0.00184645 -0.16508466 -0.031821884
-0.22373722 -0.12984845 -0.1377858 -0.035678457 -0.2994401 -0.0705428 -0.39523926 0.0038626422
-0.1788062 -0.04379109 -0.05837207 -0.13643989 -0.19226235 -0.09557776 -0.16682059 -0.19303603
-0.0632347 -0.18683438 -0.097457245 -0.19346182 0.032103416 0.11230465 -0.1296282 -0.16360939
-0.045931544 -0.23788899 -0.0772981 -0.02772869 0.13788247 -0.07476362 -0.120686494 -0.10188602
-0.1780998 -0.1695926 -0.1328773 0.04139044 -0.32565224 -0.09014741 -0.23807518 -0.23682697
-0.17907158 -0.15233439 -0.013489081 -0.17749427 -0.14054647 -0.058002792 -0.07515764 -0.24094804
-0.054668143 -0.20986569
00000000: 29fa 55bc b463 6dbe da00 9cbd 664a 95bd
00000010: 61e5 14bd 898b 9fbd 4b1a cfbd a4c2 75bc
00000020: 3a78 35be 3e16 79be ffee b1be 5526 7cbd
00000030: c21b 0fbe 5017 80be 7308 b1bd 7582 08be
00000040: 1188 a03a 4d92 2b3d ee0e 483d f079 24be
00000050: fb26 2bbc af32 6abe f985 09bd 73de 44bd
00000060: 7f1b f1bd a628 da3b 62c9 d9bd ea5f 58be
00000070: d05e 1a3d 0c23 21be acfe 2ebe 4dfb 33be
00000080: daeb debd ecff 8dbe a259 44be eabd 93be
00000090: 2ee4 58be 8b8a 50bd c648 15be 0b2f acbd
000000a0: 2dad 413d 8682 0dbe 2be8 79be beff 88bd
000000b0: 3b45 b3bd 9504 f2ba f40b 29be aa57 02bd
000000c0: 5f1b 65be fef6 04be b917 0dbe 9323 12bd
000000d0: 3650 99be be78 90bd cd5c cabe 6224 7d3b
000000e0: f918 37be 495e 33bd 8d17 6fbd e6b6 0bbe
000000f0: 6ce0 44be 46be c3bd 04d3 2abe 3dab 45be
00000100: 3281 81bd 8351 3fbe aa97 c7bd db1a 46be
00000110: df7e 033d fbff e53d 41bd 04be 3889 27be
00000120: b722 3cbd 2c99 73be 774e 9ebd 4727 e3bc
00000130: 1031 0d3e ab1d 99bd 7b2a f7bd 9ea9 d0bd
00000140: cb5f 36be afa9 2dbe fd10 08be 0689 293d
00000150: e4bb a6be 359f b8bd fbc9 73be c582 72be
00000160: 8a5e 37be 8cfd 1bbe 4e01 5dbc 0fc1 35be
00000170: 6aeb 0fbe 5694 6dbd 40ec 99bd 15bb 76be
00000180: b4eb 5fbd 08e7 56be

mixer_blocks.0.mlp_patch.mlp.2.weight f4 [49, 98]
0.10896151 0.06303749 -0.07670265 0.13286576 -0.00763157 0.030861622 -0.024221368 -0.0933402
0.06817898 0.087789975 -0.03894412 0.03005175 0.042999953 -0.03553938 -0.07028297 0.082882635
-0.008625663 0.081451826 -0.054717626 0.26205868 0.016091272 -0.02498505 0.05328163 -0.07528008
-0.0076886197 -0.093470916 0.07685752 0.004271772 -0.074302725 -0.01960155 -0.076838404 -0.025097732
-0.1904785 0.06595584 0.16153564 -0.045217507 0.17036952 0.13647556 -0.05929165 -0.09594269
0.15914391 -0.07198797 -0.021159338 -0.096206985 0.11309026 0.062374003 -0.03316341 -0.13550842
0.08229455 -0.016949147 -0.09046414 -0.055605225 0.06524606 -0.10153894 0.007130676 0.14257358
0.06597965 -0.07510646 -0.10888284 0.08701878 0.10824719 0.09831745 -0.045082066 0.032317914
0.09736487 0.13232929 0.024461018 0.086139426 0.02959253 0.122748025 0.06274739 -0.10928495
-0.12547623 -0.00894648 0.10678945 -0.12855713 -0.061143063 0.09203948 -0.08068822 -0.14983837
0.06611 0.032003973 0.096197315 -0.046454135 -0.05486824 -0.14303626 0.15365797 0.061459128
-0.06849332 0.047457945 0.030086083 -0.10158549 0.115963966 0.03687776 -0.072651505 0.1776139
0.11367 0.1237842 0.005975114 -0.004168055 0.10225286 -0.036193818 -0.09860251 0.014818701
-0.0029687015 -0.105834775 0.05626595 0.019365285 0.11349514 -0.039568488 -0.08726453 0.12169105
0.02841 -0.06366981 0.11196754 0.17788641 0.007310871 0.011279854 -0.015568092 0.026013276
0.10461626 -0.056810338 -0.09182542 -0.07873442 -0.08846878 -0.040044155 -0.018566158 -0.052566126
0.052466147 0.036605887 0.17075445 -0.06490282 0.104996495 0.03314094 0.01885677 0.045864377
0.061908487 -0.06731218 0.16687438 -0.098000064 -0.083209924 -0.04215852 0.0259434 0.12900956
0.034092426 0.05150988 -0.12426136 0.0076379655 0.03619934 -0.03356177 0.04629867 -0.056490213
-0.059978526 0.077432066 -0.13967025 -0.114038885 0.037402704 0.21348573 -0.120088294 0.05937363
0.07593369 -0.09551834 -0.056520045 0.076539226 0.07422 0.038602985 0.11553152 0.08284757
-0.13609059 -0.085187644 -0.04872998 -0.087430485 0.0197138 0.08238982 -0.17075849 0.012640682
-0.0007962704 0.12102826 -0.02945236 -0.08029035 -0.08942912 -0.05284905 0.11053334 0.007911067
0.043728597 -0.08247653 0.031565484 0.058177724 -0.09856862 0.07730327 -0.10475868 -0.06488032
0.016468128 -0.010240331 0.15927318 -0.12999721 0.13481095 0.07037911 0.109474674 -0.124668755
-0.061704613 0.003943132 -0.12936871 0.015946688 0.0047712885 -0.119607516 -0.12312532 -0.028757019
0.04926354 0.009831823 0.04226988 -0.04192475 -0.04119021 -0.06320069 -0.027273556 -0.009419395
0.08695488 0.09219869 0.14412409 0.05448787 -0.08505625 -0.1097499 -0.1189169 -0.073066585
0.10566095 -0.025927361 -0.016848734 -0.07086015 -0.07528677 0.022434242 -0.058742218 0.058759253
0.07313673 -0.1584078 -0.04867551 -0.09523185 0.01862175 -0.022000287 0.036248907 0.062466
0.025275718 0.041307975 -0.08508962 -0.06998504 0.0056109596 -0.0023522694 -0.13131034 0.033885274
0.053520244 0.04707431 -0.17890932 -0.14150855 -0.051327236 0.059285153 0.019787138 -0.003330962
00000000: 3627 df3d cd19 813d 4716 9dbd f60d 083e
00000010: 4012 fabb 83d1 fc3c e46b c6bc 2629 bfbd
00000020: 6ca1 8b3d 3bcb b33d df83 1fbd 162f f63c
00000030: b820 303d be91 11bd 85f0 8fbd 5fbe a93d
00000040: a752 0dbc 37d0 a63d 971f 60bd 8e2c 863e
00000050: d8d1 833c 73ad ccbc d73d 5a3d 712c 9abd
00000060: d1f0 fbbb ae6d bfbd 7a67 9d3d 39fa 8b3b
00000070: 072c 98bd 6e93 a0bc 745d 9dbd c299 cdbc
00000080: cc0c 43be db13 873d 9969 253e fe35 39bd
00000090: 5975 2e3e 40c0 0b3e cddb 72bd 9a7d c4bd
000000a0: 9ff6 223e 6e6e 93bd 5956 adbc 2b08 c5bd
000000b0: de9b e73d e27b 7f3d 5bd6 07bd b8c2 0abe
000000c0: 0c8a a83d f0d8 8abc 4345 b9bd 4ec2 63bd
000000d0: ba9f 853d a6f3 cfbd 72a8 e93b cffe 113e
000000e0: 5720 873d 6ad1 99bd f7fd debd e736 b23d
000000f0: b4b0 dd3d a95a c93d f9a7 38bd ca5f 043d
00000100: 3c67 c73d 5481 073e 7962 c83c de69 b03d
00000110: 096c f23c 5163 fb3d b481 803d cad0 dfbd
00000120: d77c 00be 4294 12bc 6db4 da3d 7ba4 03be
00000130: 2671 7abd 327f bc3d de3f a5bd 3b6f 19be
00000140: ae64 873d 9916 033d 1903 c53d b146 3ebd
00000150: 85bd 60bd 1978 12be 8458 1d3e 91bc 7b3d
00000160: 3a46 8cbd 4363 423d 1777 f63c 0e0c d0bd
00000170: 847e ed3d 220d 173d 50ca 94bd 6be0 353e
00000180: d1cb e83d 9282 fd3d e4ca c33b 2e94 88bb
00000190: f369 d13d f83f 14bd 1df0 c9bd 23ca 723c
000001a0: 8c8e 42bb e7bf d8bd 2077 663d f2a3 9e3c
000001b0: 2470 e83d 9112 22bd bfb7 b2bd 2839 f93d
000001c0: 17bc e83c 5165 82bd 3d4f e53d db27 363e
000001d0: 0890 ef3b 23cf 383c 5011 7fbc cb19 d53c
000001e0: 0d41 d63d f5b1 68bd f70e bcbd 833f a1bd
000001f0: 1f2f b5bd 5705 24bd 0e18 98bc 944f 57bd
00000200: bee6 563d 0ef0 153d 41da 2e3e c5eb 84bd
00000210: 6708 d73d cbbe 073d 8379 9a3c 49dc 3b3d
00000220: c193 7d3d f8da 89bd 1ee1 2a3e 42b4 c8bd
00000230: f769 aabd 6aae 2cbd 4187 d43c 151b 043e
00000240: 80a4 0b3d 06fc 523d bd7c febd e647 fa3b
00000250: c245 143d 1178 09bd ada3 3d3d 4862 67bd
00000260: 0bac 75bd b494 9e3d b805 0fbe 388d e9bd
00000270: 9433 193d 019c 5a3e daf0 f5bd c331 733d
00000280: 1f83 9b3d 1f9f c3bd 9081 67bd 99c0 9c3d
00000290: a800 983d 2a1e 1e3d ca9b ec3d fdab a93d
000002a0: 555b 0bbe dc76 aebd 1699 47bd c10e b3bd
000002b0: d67e a13c febb a83d 50db 2ebe dd1a 4f3c
000002c0: cdbc 50ba aadd f73d 1346 f1bc 446f a4bd
000002d0: 9d26 b7bd 3f78 58bd 4e5f e23d 6c9d 013c
000002e0: c21c 333d 74e9 a8bd cf4a 013d c44b 6e3d
000002f0: 58de c9bd 2d51 9e3d b88b d6bd f9df 84bd
00000300: 2be8 863c 10c7 27bc 8218 233e fd1d 05be
00000310: e20b 0a3e ec22 903d 4234 e03d 5552 ffbd
00000320: fabd 7cbd 6335 813b 3b79 04be a1a2 823c
00000330: 7858 9c3b c9f4 f4bd 2129 fcbd d793 ebbc
00000340: 91c8 493d a815 213c 2f23 2d3d 49b9 2bbd
00000350: 11b7 28bd 5d6f 81bd cb6c dfbc ce53 1abc
00000360: 6615 b23d abd2 bc3d 4495 133e ac2e 5f3d
00000370: f931 aebd 8ec4 e0bd b48a f3bd efa3 95bd
00000380: c564 d83d 9e65 d4bc 5b06 8abc 201f 91bd
00000390: f32f 9abd 04c8 b73c ae9b 70bd 8bad 703d
000003a0: b6c8 953d a835 22be f95f 47bd eb08 c3bd
000003b0: a48c 983c f239 b4bc bc79 143d 59dc 7f3d
000003c0: 060f cf3c 8d32 293d 7743 aebd 5154 8fbd
000003d0: 24dc b73b 8828 1abb 3876 06be 49cb 0a3d
000003e0: 0b38 5b3d fed0 403d 0134 37be 9ee7 10be
000003f0: 823c 52bd fdd4 723d a318 a23c 454c 5abb

mixer_blocks.0.mlp_patch.mlp.2.bias f4 [49]
0.029601123 0.108752824 -0.040121023 -0.08974223 -0.031625617 -0.071984254 0.008807917 0.030278888
-0.09192442 -0.03574501 -0.07469318 0.076135136 -0.10021982 -0.012364563 -0.012077604 -0.0582139
-0.024281206 0.09663904 -0.102994695 -0.017951839 0.01948184 -0.026320444 -0.031404335 0.075127654
-0.06503829 0.006829591 0.01648738 0.020376269 -0.078097746 0.014799054 -0.062056158 -0.01428023
0.051597368 0.037662003 0.04168859 0.058380317 0.030615572 -0.051231913 -0.095425256 0.058907267
0.034058876 -0.029532675 -0.07267372 -0.012651871 -0.06599601 0.09603765 -0.08042624 0.08361556
-0.071214356
00000000: 0e7e f23c cdb9 de3d f155 24bd c6ca b7bd
00000010: dd89 01bd 7b6c 93bd 154f 103c 6e0b f83c
00000020: df42 bcbd 5c69 12bd bdf8 98bd bdec 9b3d
00000030: 0d40 cdbd bc94 4abc 25e1 45bc b371 6ebd
00000040: 61e9 c6bc b0ea c53d e2ee d2bd bc0f 93bc
00000050: 6198 9f3c f99d d7bc d5a1 00bd 87dc 993d
00000060: cc32 85bd c3ca df3b 8b10 873c 22ec a63c
00000070: b6f1 9fbd bb77 723c 992e 7ebd a0f7 69bc
00000080: c357 533d 7943 1a3d a8c1 2a3d 3320 6f3d
00000090: 82cd fa3c 8ed8 51bd 516e c3bd bf48 713d
000000a0: 5281 0b3d 82ee f1bc f6d5 94bd cb49 4fbc
000000b0: eb28 87bd 63af c43d 83b6 a4bd a23e ab3d
000000c0: d5d8 91bd

mixer_blocks.0.ln1.weight f4 [16]
0.99875253 1.1410978 1.0292794 1.0089335 0.96413004 1.1249852 1.0222644 0.96946186
1.0222151 1.0409555 1.0985388 1.0297977 0.9688057 1.0146465 1.0104662 1.0543923
00000000: 3fae 7f3f 7e0f 923f 6dbf 833f bc24 813f
00000010: 3ad1 763f 84ff 8f3f 8fd9 823f a72e 783f
00000020: f2d7 823f 083e 853f eb9c 8c3f 69d0 833f
00000030: a603 783f f0df 813f f556 813f 54f6 863f

mixer_blocks.0.ln1.bias f4 [16]
-0.0446485 -0.042651284 0.006248892 0.0750632 0.024978887 0.048694864 -0.07796097 -0.010017243
-0.08529842 0.044935998 0.0832282 -0.036881723 0.052344665 -0.029659623 -0.03573225 0.0069960603
00000000: 58e1 36bd 1db3 2ebd 81c3 cc3b bcba 993d
00000010: 86a0 cc3c 4474 473d 00aa 9fbd 5d1f 24bc
00000020: f0b0 aebd cf0e 383d 8c73 aa3d 4a11 17bd
00000030: 5c67 563d bdf8 f2bc fb5b 12bd 353f e53b

mixer_blocks.0.mlp_channel.mlp.0.weight f4 [32, 16]
0.1153263 0.22256169 0.08683729 -0.15759242 0.14238149 0.1400893 0.13277306 0.2987588
0.090589896 0.13017812 -0.18456645 -0.23378886 0.052902084 0.22702266 -0.1467407 -0.076250054
0.12801972 -0.23145023 0.14256929 0.03738805 -0.01714364 -0.27223426 -0.038375754 -0.06328149
-0.28090626 -0.14848496 0.28514415 -0.049546864 -0.052190606 0.28060648 -0.27384284 0.037491612
-0.16287513 0.29092783 -0.17645949 -0.2456882 -0.03786869 -0.16221467 -0.044234905 -0.29152206
0.23201308 -0.12759535 -0.063357085 0.17557852 -0.24709746 0.123388216 0.110857 -0.16958237
-0.14370152 0.06370546 -0.14401203 0.19471902 0.17000876 -0.43689808 0.038856957 -0.05121022
0.259494 0.3456483 0.15505846 0.06808391 -0.117251895 0.08104996 -0.2335532 0.05248604
0.13181385 -0.030967562 -0.08802328 0.025912978 4.6079178e-05 0.11191475 0.20447163 -0.17716877
0.19931711 -0.22653471 -0.099604405 0.016519444 -0.10502377 0.08980661 -0.15779293 -0.16273828
0.08963383 0.081448175 0.1391614 -0.2261584 -0.19992624 -0.18092938 0.10994465 0.10792624
0.1981057 0.21654963 0.17476271 0.15391287 0.069373764 0.13844872 0.21814178 0.14611195
-0.22528917 -0.22687365 -0.32014248 -0.15889695 0.24306972 0.1674105 0.17327286 0.092172064
-0.029978123 -0.12582672 -0.021102378 -0.071715765 -0.0035099217 -0.18103716 -0.08465878 0.07316049
0.116144 0.05209357 0.14316586 -0.06660397 0.14553344 -0.13066126 0.18934056 -0.21861681
0.026107937 -0.2633306 -0.32002726 0.17690226 0.19089027 0.10785995 -0.026402116 0.21137685
-0.11927766 -0.088925175 -0.2138531 0.026420847 0.04551671 -0.15185471 0.075718366 -0.13183294
-0.20067304 0.15334083 0.20778556 -0.22010094 0.15570253 -0.15737744 0.17671074 0.18364298
0.1123669 0.0038015249 0.18074617 0.16204451 0.024850914 -0.32415384 -0.05089194 -0.22973812
0.12735483 0.114269674 0.15575078 -0.05603589 0.08700405 -0.05400993 0.059674725 -0.08452748
0.21624593 0.03414707 0.11024236 -0.063609995 -0.11490563 0.034474358 0.13362831 0.224592
0.27428755 -0.3399397 0.060949147 0.06328338 -0.088577986 0.28105593 -0.11501337 -0.18451722
0.3283824 -0.23829496 0.18837903 0.29497987 0.08204922 0.03050596 -0.14435142 0.011753494
-0.32929137 -0.013663137 -0.14971472 0.07989958 -0.02117672 0.18462372 -0.15337819 -0.08381686
0.035142366 0.29830575 0.0428319 0.07090424 -0.1347946 0.10197335 0.07462369 -0.025405241
-0.23007405 0.25286758 0.23305026 0.10843409 -2.8578164e-05 -0.15880334 0.03738471 -0.19024575
-0.24744967 -0.16990457 0.14116406 -0.016505975 0.16009162 -0.159023 0.05690722 -0.078368425
0.13429648 -0.2217289 -0.19179283 0.018049685 -0.17336299 0.30442336 0.0002864401 0.07099365
0.23277275 -0.0028364079 -0.26759565 -0.0015453574 -0.23816921 0.2684867 0.112430066 -0.044035994
-0.02756449 0.186253 -0.19839692 0.15074727 -0.040593956 -0.27227178 -0.20381269 0.13594809
0.033956796 -0.22032093 -0.24278265 0.03051767 -0.21973528 -0.045972366 0.005637088 -0.16601127
0.081006356 0.2404096 0.122326985 0.10871371 -0.06568582 0.29651532 0.13654606 0.21317002
00000000: 3230 ec3d 36e7 633e c0d7 b13d e85f 21be
00000010: 74cc 113e 9273 0f3e a9f5 073e eaf6 983e
00000020: 3287 b93d 6a4d 053e fdfe 3cbe 5966 6fbe
00000030: dbaf 583d a178 683e 3243 16be fd28 9cbd
00000040: 9a17 033e 4a01 6dbe affd 113e 3624 193d
00000050: d270 8cbc 4a62 8bbe e52f 1dbd ba99 81bd
00000060: f2d2 8fbe 710c 18be 6afe 913e a7f1 4abd
00000070: d1c5 55bd a7ab 8f3e 2135 8cbe ce90 193d
00000080: bdc8 26be 7ef4 943e ccb1 34be b095 7bbe
00000090: 331c 1bbd 9a1b 26be a92f 35bd 6142 95be
000000a0: d694 6d3e 5ba8 02be 5cc1 81bd dbca 333e
000000b0: 1e07 7dbe f6b2 fc3d ff08 e33d 00a7 2dbe
000000c0: 7e26 13be 0278 823d e477 13be 6c64 473e
000000d0: c716 2e3e 1bb1 dfbe 7928 1f3d cfc1 51bd
000000e0: 66dc 843e d0f8 b03e a5c7 1e3e 946f 8b3d
000000f0: c321 f0bd 85fd a53d 9228 6fbe 9afb 563d
00000100: 36fa 063e afaf fdbc 8d45 b4bd 7447 d43c
00000110: 2445 4138 8f33 e53d 0361 513e bb6b 35be
00000120: c919 4c3e b7f8 67be 65fd cbbd c953 873c
00000130: b416 d7bd 87ec b73d 7894 21be dda4 26be
00000140: f191 b73d 4dce a63d 5380 0e3e 1196 67be
00000150: 77b9 4cbe 8d45 39be a92a e13d 6f08 dd3d
00000160: 38dc 4a3e 30bf 5d3e fff4 323e 569b 1d3e
00000170: d513 8e3d 80c5 0d3e 8f60 5f3e 5f9e 153e
00000180: 34b2 66be 9151 68be b7e9 a3be e2b5 22be
00000190: 45e7 783e a86d 2b3e 716e 313e b5c4 bc3d
000001a0: ae94 f5bc b8d8 00be e5de acbc b7df 92bd
000001b0: b706 66bb ce61 39be 9561 adbd 2bd5 953d
000001c0: e8dc ed3d 1160 553d 129a 123e aa67 88bd
000001d0: b806 153e 11cc 05be 7ee2 413e 16dd 5fbe
000001e0: 50e0 d53c 45d3 86be 9dda a3be de25 353e
000001f0: bd78 433e ade5 dc3d 4049 d8bc 2c73 583e
00000200: d947 f4bd 671e b6bd 4ffc 5abe 8870 d83c
00000210: bb6f 3a3d cd7f 1bbe 3b12 9b3d 37ff 06be
00000220: 3c7d 4dbe 6105 1d3e bdc5 543e 2462 61be
00000230: 7c70 1f3e 8d27 21be a9f3 343e e80c 3c3e
00000240: 9e20 e63d 0123 793b 8615 393e ffee 253e
00000250: 2594 cb3c 7ef7 a5be 1174 50bd 7840 6bbe
00000260: 4e69 023e 3806 ea3d 227d 1f3e e485 65bd
00000270: 2e2f b23d 8439 5dbd 7c6d 743d be1c adbd
00000280: 936f 5d3e ccdd 0b3d bfc6 e13d f545 82bd
00000290: a553 ebbd fc34 0d3d dcd5 083e 72fb 653e
000002a0: 6b6f 8c3e 940c aebe d0a5 793d b79a 813d
000002b0: 6068 b5bd 90e6 8f3e 218c ebbd 15f2 3cbe
000002c0: bd21 a83e 9803 74be 6fe6 403e 9a07 973e
000002d0: 6c09 a83d a3e7 f93c dcd0 13be ba91 403c
000002e0: e198 a8be 5adb 5fbc d14e 19be 64a2 a33d
000002f0: cd7a adbc 000e 3d3e 2c0f 1dbe 2da8 abbd
00000300: 71f1 0f3d 88bb 983e 8170 2f3d 3e36 913d
00000310: 9807 0abe 67d7 d03d 4ed4 983d a71e d0bc
00000320: 8898 6bbe dc77 813e baa4 6e3e b112 de3d
00000330: 24bb efb7 589d 22be b620 193d c8cf 42be
00000340: 7263 7dbe 77fb 2dbe 508d 103e 8a37 87bc
00000350: 0fef 233e edd6 22be 8c17 693d a07f a0bd
00000360: 0485 093e e70c 63be 5765 44be efdc 933c
00000370: 1186 31be 61dd 9b3e 572d 9639 1e65 913d
00000380: fb5b 6e3e 07e3 39bb 4c02 89be 978d caba
00000390: a1e2 73be 1777 893e bc41 e63d 165f 34bd
000003a0: edce e1bc 1bb9 3e3e 9028 4bbe 7e5d 1a3e
000003b0: d945 26bd 3567 8bbe 46b4 50be fa35 0b3e
000003c0: 4816 0b3d cf9b 61be 049c 78be 3100 fa3c
000003d0: 4902 61be 854d 3cbd 52b7 b83b dcfe 29be
000003e0: a9e6 a53d ef2d 763e 9286 fa3d 4ba5 de3d
000003f0: 4a86 86bd dbd0 973e bbd2 0b3e 3e49 5a3e

mixer_blocks.0.mlp_channel.mlp.0.bias f4 [32]
0.21037903 -0.14229648 0.069119446 -0.0028857512 -0.015094175 -0.17380929 0.23742592 -0.08981612
0.08418823 0.2073991 -0.21083336 0.052038178 -0.20411533 -0.3278478 0.062949754 -0.120531544
-0.044658173 0.17363775 0.03535593 0.11386866 -0.07099556 -0.072268695 -0.20116463 -0.15579458
0.07496114 -0.09767099 0.053779166 0.04155182 -0.12414055 -0.32866994 -0.18927869 0.19065404
00000000: 9a6d 573e 2bb6 11be 7f8e 8d3d df1e 3dbb
00000010: 8f4d 77bc 10fb 31be c81f 733e 84f1 b7bd
00000020: e16a ac3d 6e60 543e b3e4 57be fc25 553d
00000030: 9c03 51be abdb a7be cdeb 803d 3ed9 f6bd
00000040: 7deb 36bd 18ce 313e 61d1 103d f933 e93d
00000050: 1f66 91bd 9c01 94bd 1afe 4dbe 9d88 1fbe
00000060: 3a85 993d ba07 c8bd 8b47 5c3d 3e32 2a3d
00000070: 673d febd 6d47 a8be 46d2 41be d03a 433e

mixer_blocks.0.mlp_channel.mlp.2.weight f4 [16, 32]
0.050179776 -0.09276644 0.111656025 0.23817843 -0.11520603 -0.17471147 -0.07726735 0.12227026
-0.012355593 -0.029107962 -0.16492717 -0.11431638 0.16224542 0.05825037 0.1661916 0.16759367
-0.1630108 -0.059439056 -0.05661384 -0.17052042 0.14150955 0.12835036 0.12845378 0.21108688
-0.13089712 -0.028148068 -0.21678413 0.026256952 0.12362799 0.0553415 0.25307032 -0.010560502
-0.074665196 -0.16291872 0.20836987 -0.16661629 0.052546557 0.114767544 -0.21445596 0.14697728
0.0071605286 0.10197688 -0.01031163 -0.124187075 -0.053149726 -0.099491276 0.028357403 -0.1563219
0.0621028 -0.052690085 -0.052777693 -0.14038782 0.08264373 0.18558396 0.0880737 -0.13438801
-0.10572137 0.1736431 0.17992227 -0.042189095 0.12349608 0.08070558 0.13192236 0.034758143
0.08138205 0.10332059 -0.070639856 0.007003486 -0.13843687 -0.20226814 0.029690156 0.06930789
0.022071779 -0.023793595 0.17726061 -0.06618331 0.14604212 -0.03536453 -0.20858854 -0.1519434
0.31413344 0.023436114 0.266129 0.027276095 0.03874278 0.2685684 0.0068532056 0.1513735
0.1423957 0.012649516 0.14333847 -0.1765879 -0.13363166 -0.0042318297 -0.12310166 -0.12407069
0.09964724 0.22014141 -0.09787254 -0.088646434 0.043228213 -0.03921468 -0.2979941 0.015903749
0.011144829 0.1381593 -0.061795566 0.17858066 -0.2787631 -0.013701304 -0.12139905 0.14939034
-0.056058735 0.101916924 0.186788 0.18686192 -0.18779299 0.14202634 0.07224352 -0.024786953
-0.09837863 -0.19842653 -0.14552449 0.13229169 -0.14680971 -0.028391255 -0.16406035 -0.1300131
-0.084415294 0.16259961 -0.14826603 -0.050257873 -0.19004653 -0.112799056 0.019908557 -0.17513084
0.10280291 -0.045257043 -0.111522295 0.11705623 0.109761074 0.09964145 -0.03577292 -0.0985942
-0.021521203 -0.020762604 0.081566624 -0.16143759 0.13751654 0.08409779 -0.13890658 0.18765855
-0.1282339 -0.13366182 0.17552997 0.022659926 -0.11627673 -0.22685917 0.07435236 0.06200727
0.0022448632 -0.1731825 -0.1712366 -0.38903552 0.014545116 -0.07411771 0.14622024 0.015722191
-0.06440447 -0.20719032 0.11453601 0.088253826 0.05219841 0.018058289 -0.102510236 0.0028016546
-0.12897229 0.04111727 0.008562434 0.02781661 0.19314817 -0.020413773 -0.20262018 0.09252928
-0.005888701 -0.10852005 -0.13771965 -0.006795423 -0.24459168 0.04843525 -0.11577331 -0.14839815
0.16194268 -0.2191394 -0.052192386 -0.22779 -0.04481509 0.14172615 -0.16650568 0.15547754
-0.1925324 -0.13314146 0.15535668 -0.23172292 -0.013037518 0.16909695 -0.02764176 0.07988657
0.06951057 0.20707594 0.1398285 -0.08597025 0.2151454 -0.070378795 -0.08148659 0.27772835
-0.057965644 0.22875857 0.12136644 -0.17864388 0.120809145 -0.1401035 -0.015467102 0.19783396
0.10483761 0.16359982 -0.10867963 -0.13799165 0.0075331754 0.025284078 0.16671567 -0.08128873
0.026380751 -0.052776854 -0.0015041054 -0.2050106 -0.11463008 0.01234023 -0.24564397 -0.12873179
-0.058881626 0.2169082 -0.106411286 0.18099414 0.01286097 0.1581242 -0.027690826 -0.1434253
0.17921796 -0.14448386 0.1426111 0.07699297 0.09984859 -0.28111333 -0.10559515 -0.19473709
00000000: 4f89 4d3d 55fc bdbd eaab e43d 0ce5 733e
00000010: 24f1 ebbd 90e7 32be 583e 9ebd d468 fa3d
00000020: 1d6f 4abc d273 eebc abe2 28be b51e eabd
00000030: aa23 263e f197 6e3d 212e 2a3e ad9d 2b3e
00000040: 4eec 26be 5e76 73bd eae3 67bd e89c 2ebe
00000050: e1e7 103e 476e 033e 6389 033e 2927 583e
00000060: e509 06be c796 e6bc a9fc 5dbe d218 d73c
00000070: ac30 fd3d c5ad 623d 6f92 813e f505 2dbc
00000080: 11ea 98bd 2ad4 26be e95e 553e 769d 2abe
00000090: 0f3b 573d 3f0b eb3d 589a 5bbe 3681 163e
000000a0: dea2 ea3b 41d9 d03d 1cf2 28bc cb55 febd
000000b0: 87b3 59bd 15c2 cbbd c94d e83c d912 20be
000000c0: 815f 7e3d 8fd1 57bd 6c2d 58bd d3c1 0fbe
000000d0: 1e41 a93d b909 3e3e fc5f b43d 039d 09be
000000e0: 7284 d8bd 7fcf 313e 8b3d 383e 79ce 2cbd
000000f0: 83eb fc3d f848 a53d a816 073e 8e5e 0e3d
00000100: a2ab a63d bf99 d33d a1ab 90bd 807d e53b
00000110: 65c2 0dbe 611f 4fbe c538 f33c 4cf1 8d3d
00000120: e0cf b43c c9ea c2bc ce83 353e 1d8b 87bd
00000130: 118c 153e 66da 10bd 3c98 55be 0d97 1bbe
00000140: 19d6 a03e 18fd bf3c 0f42 883e 1e72 df3c
00000150: c0b0 1e3d cc81 893e db90 e03b a801 1b3e
00000160: 2ed0 113e ea3f 4f3c 52c7 123e 75d3 34be
00000170: bdd6 08be 29ab 8abb b91c fcbd c618 febd
00000180: da13 cc3d c06c 613e 6671 c8bd 438c b5bd
00000190: 1110 313d 939f 20bd af92 98be 9448 823c
000001a0: cd98 363c a279 0d3e 591d 7dbd d9dd 363e
000001b0: 09ba 8ebe 6f7b 60bc 11a0 f8bd c8f9 183e
000001c0: d89d 65bd d2b9 d03d 5a45 3f3e bb58 3f3e
000001d0: ce4c 40be 5a6f 113e 69f4 933d 020e cbbc
000001e0: bc7a c9bd 5330 4bbe 5f04 15be 7977 073e
000001f0: 4955 16be c794 e8bc 70ff 27be 2722 05be
00000200: ede1 acbd 8380 263e 0dd3 17be 33db 4dbd
00000210: 8f9b 42be 3103 e7bd 4517 a33c 8055 33be
00000220: 558a d23d 735f 39bd cd65 e4bd 2dbb ef3d
00000230: 6aca e03d d110 cc3d a086 12bd c2eb c9bd
00000240: 3c4d b0bc 5616 aabc 670c a73d e54f 25be
00000250: 23d1 0c3e 763b ac3d 873d 0ebe 9029 403e
00000260: bf4f 03be a5de 08be 21be 333e 4fa1 b93c
00000270: 7f22 eebd c54d 68be 0d46 983d 56fb 7d3d
00000280: 8e1e 133b c156 31be a658 2fbe aa2f c7be
00000290: a34e 6e3c 07cb 97bd c2ba 153e d3cb 803c
000002a0: 7ee6 83bd b329 54be db91 ea3d 6cbe b43d
000002b0: 00ce 553d faee 933c e3f0 d1bd f79b 373b
000002c0: 5011 04be 956a 283d 7449 0c3c a9df e33c
000002d0: a2c8 453e c93a a7bc aa7b 4fbe fe7f bd3d
000002e0: 01f6 c0bb c33f debd 6106 0dbe 24ac debb
000002f0: 3e76 7abe 0a64 463d 8f1a edbd aff5 17be
00000300: 4dd4 253e 1466 60be afc7 55bd c841 69be
00000310: 0790 37bd a920 113e 7780 2abe 8135 1f3e
00000320: 3727 45be 3c56 08be d215 1f3e c648 6dbe
00000330: 509b 55bc c027 2d3e f970 e2bc 929b a33d
00000340: 8f5b 8e3d b70b 543e 342f 0f3e 2c11 b0bd
00000350: 134f 5c3e c222 90bd 71e2 a6bd 6932 8e3e
00000360: 626d 6dbd b03f 6a3e f88e f83d 6cee 36be
00000370: c96a f73d 4b77 0fbe ba69 7dbc fc94 4a3e
00000380: 1ab5 d63d b686 273e 6d93 debd af4d 0dbe
00000390: dbd8 f63b 8e20 cf3c 83b7 2a3e b57a a6bd
000003a0: 721c d83c 8b2c 58bd 6725 c5ba 4cee 51be
000003b0: 2dc3 eabd ad2e 4a3c 188a 7bbe 44d2 03be
000003c0: dc2d 71bd 2f1d 5e3e 29ee d9bd 8756 393e
000003d0: d1b6 523c 4feb 213e dfd7 e2bc 15de 12be
000003e0: ea84 373e 94f3 13be a508 123e 7eae 9d3d
000003f0: 6b7d cc3d 16ee 8fbe 4542 d8bd 2969 47be

mixer_blocks.0.mlp_channel.mlp.2.bias f4 [16]
0.049350176 0.026418008 -0.026644398 0.10190033 0.021968324 -0.07920584 0.02511597 0.07247969
-0.00074727205 0.12610117 0.015589501 -0.096964106 -0.039269302 -0.1549578 -0.20344362 0.062183395
00000000: 6923 4a3d 946a d83c 5a45 dabc 1fb1 d03d
00000010: eaf6 b33c ac36 a2bd 02c0 cd3c 3b70 943d
00000020: 94e4 43ba aa20 013e 1b6b 7f3c 1e95 c6bd
00000030: d9d8 20bd 42ad 1ebe 8653 50be 04b4 7e3d

mixer_blocks.1.ln0.weight f4 [16]
0.9114776 0.77178144 1.0483674 0.97789747 0.9904048 0.93289655 0.87427264 0.90381366
0.97263813 0.8957864 0.9601066 0.8599518 0.9854192 0.9085724 0.9409732 0.94991684
00000000: 9956 693f 7893 453f e730 863f 7d57 7a3f
00000010: 2b8b 7d3f 4fd2 6e3f 55d0 5f3f 5560 673f
00000020: d0fe 783f 4252 653f 8cc9 753f cd25 5c3f
00000030: 6f44 7c3f 3398 683f 9fe3 703f c02d 733f

mixer_blocks.1.ln0.bias f4 [16]
-0.055008523 -0.101105094 0.06678026 0.112749025 0.007356037 0.09172995 0.010605538 -0.09799392
0.06238206 0.13544492 -0.018881716 0.006054031 -0.06468504 0.043627746 0.045778025 0.03155327
00000000: 9e50 61bd 3010 cfbd 17c4 883d f6e8 e63d
00000010: e90a f13b e9dc bb3d dac2 2d3c 09b1 c8bd
00000020: 5584 7f3d 13b2 0a3e d4ad 9abc e560 c63b
00000030: 9779 84bd 02b3 323d bd81 3b3d 003e 013d

mixer_blocks.1.mlp_patch.mlp.0.weight f4 [98, 49]
0.044543736 -0.06874437 -0.08892457 -0.06709958 -0.114528224 0.07336581 -0.14171755 0.057636358
0.05559124 -0.09952893 0.03100836 -0.1727446 -0.11712182 -0.12032054 -0.00293869 0.10810187
-0.122882314 0.08536837 -0.064195864 0.0988069 0.12692645 0.00078932167 -0.18264341 -0.037408706
0.12683289 0.020645082 0.050437838 -0.03282079 -0.04617554 -0.24938977 0.008037318 0.016477806
0.11581974 -0.07535258 0.074997276 0.08480247 -0.14520666 -0.19083686 0.09423044 -0.024234075
-0.048395418 -0.04791292 -0.16157708 -0.22994272 0.1506053 -0.26919004 -0.16101189 0.13048072
0.14361711 0.18217736 -0.002710619 0.032357674 -0.110190526 -0.21808298 -0.026101042 -0.04704782
-0.08267729 -0.06877162 -0.026638016 0.096797355 -0.10308799 0.21035224 0.06683351 -0.050659634
-0.101051934 0.0753728 0.0037142492 0.047125768 0.16204222 0.0521221 0.042516418 0.1311164
-0.10420511 0.0007093677 0.15156998 0.14283298 -0.26478747 0.03318228 0.13347757 -0.026945185
-0.04698598 -0.051556565 0.16626713 0.0068677943 0.19390391 -0.013622711 0.058045257 -0.25188848
-0.097899035 0.21352592 0.028659193 -0.084921 0.10961169 0.016271751 0.13972117 0.034991987
0.0051833345 0.036359414 -0.0045631453 0.05924723 0.19106953 -0.073641926 0.10787625 0.10700414
-0.018334825 -0.08307733 -0.070515275 0.15085192 -0.0283776 0.11071531 0.023109369 -0.114319995
-0.1787499 -0.122399025 -0.025781699 -0.0024899151 -0.07641757 0.16004024 -0.061351527 -0.06935856
0.015508538 0.070555635 0.15601526 0.08171412 -0.114506334 -0.18207286 -0.13111864 -0.13559937
-0.0894042 0.11311344 -0.020867249 -0.09562782 0.007083123 -0.117772326 -0.10723668 0.03889047
0.25883052 -0.15443936 -0.1307766 -0.11834501 0.15094146 0.04903437 0.013258855 0.2310259
-0.08379371 0.17571114 -0.044064198 -0.044279914 -0.06655569 -0.22715153 0.07199118 -0.12807296
-0.19429034 0.13009216 -0.07125644 0.06883528 -0.06805122 0.03688138 -0.19402823 -0.0548229
0.14897601 0.025859771 0.13966486 -0.015548535 0.07151002 0.047542244 0.01539198 -0.14549401
-0.049990017 0.15112573 0.10876932 -0.07052504 -0.03824019 -0.07807345 0.2904209 -0.12887415
0.086497284 0.06536155 0.0486142 -0.03688121 -0.07234093 0.1271871 -0.030747982 -0.13876162
-0.013442867 0.13880387 -0.09418 -0.08982095 -0.050475504 -0.029671501 -0.08757203 -0.018338092
0.15846777 0.008144156 -0.022734854 -0.16848223 -0.08816534 -0.019664047 -0.19757879 0.027638212
-0.21963742 -0.06356221 -0.03192663 -0.10851351 -0.12804857 -0.19457087 -0.06442225 0.10208119
0.06721596 0.08724107 0.13369697 0.027536733 -0.12798254 0.03814473 -0.054628015 0.08939278
0.032795012 -0.04699091 0.09623449 -0.0402284 -0.12653777 0.0005216203 0.028916117 0.0075960993
-0.25404727 -0.01855117 -0.017089361 0.15705293 -0.049499117 -0.1045448 0.111723475 -0.03637728
0.17614216 -0.06984831 0.051117316 0.038800932 -0.025328755 -0.08912656 0.043242 -0.1215032
-0.011129136 -0.046200942 -0.06913577 -0.18244542 -0.10015555 -0.047565985 -0.04855129 -0.08101874
0.112615906 0.12966992 -0.006569221 -0.043936655 -0.089687675 -0.11046704 0.23152708 -0.12101843
00000000: 7e73 363d d9c9 8cbd 161e b6bd 816b 89bd
00000010: c68d eabd d040 963d 681e 11be 1a14 6c3d
00000020: a4b3 633d d3d5 cbbd 3f05 fe3c f6e3 30be
00000030: 91dd efbd 9e6a f6bd 0997 40bb 8364 dd3d
00000040: b9a9 fbbd 9dd5 ae3d 1f79 83bd 465b ca3d
00000050: 02f9 013e 7bea 4e3a e006 3bbe df39 19bd
00000060: 7be0 013e e01f a93c e897 4e3d 186f 06bd
00000070: 9022 3dbd 0860 7fbe f4ae 033c 77fc 863c
00000080: e632 ed3d 7452 9abd 2c98 993d ebac ad3d
00000090: 0eb1 14be bd6a 43be e4fb c03d 8a86 c6bc
000000a0: 463a 46bd 5740 44bd 7674 25be 1b76 6bbe
000000b0: 4738 1a3e 47d3 89be 4de0 24be bd9c 053e
000000c0: 5d10 133e b48c 3a3e a4a4 31bb 7b89 043d
000000d0: 92ab e1bd 2551 5fbe dad1 d5bc 37b5 40bd
000000e0: b652 a9bd 23d8 8cbd f837 dabc b13d c63d
000000f0: cc1f d3bd 9466 573e 02e0 883d 7a80 4fbd
00000100: 51f4 cebd 0e5d 9a3d c36a 733b f306 413d
00000110: 65ee 253e fc7d 553d b225 2e3d 6143 063e
00000120: 7d69 d5bd dcf4 393a 2935 1b3e cf42 123e
00000130: 3992 87be 24ea 073d 58ae 083e 26bc dcbc
00000140: 5f74 40bd fa2c 53bd ee41 2a3e 3c0b e13b
00000150: bf8e 463e cb31 5fbc ddc0 6d3d 87f7 80be
00000160: 4a7f c8bd 8aa6 5a3e afc6 ea3c 10eb adbd
00000170: 187c e03d 564c 853c 1113 0f3e c253 0f3d
00000180: f6d8 a93b 9ced 143d 7086 95bb 39ad 723d
00000190: bba7 433e 94d1 96bd 39ee dc3d fd24 db3d
000001a0: ea32 96bc 7224 aabd 506a 90bd ed78 1a3e
000001b0: 2478 e8bc b5be e23d dc4f bd3c 9a20 eabd
000001c0: 370a 37be 57ac fabd 2434 d3bc d82d 23bb
000001d0: d180 9cbd 97e1 233e bd4b 7bbd dc0b 8ebd
000001e0: 8617 7e3c 797f 903d 77c2 1f3e bc59 a73d
000001f0: 4c82 eabd 4f71 3abe f743 06be 90da 0abe
00000200: 8d19 b7bd 05a8 e73d cbf1 aabc 85d8 c3bd
00000210: 8b19 e83b 9e32 f1bd e89e dbbd 9d4b 1f3d
00000220: 6f85 843e 5a25 1ebe 4dea 05be de5e f2bd
00000230: 6690 1a3e 43d8 483d ab3b 593c 0e92 6c3e
00000240: 099c abbd 9fed 333e a97c 34bd db5e 35bd
00000250: 594e 88bd 699a 68be 1d70 933d 8f25 03be
00000260: 0cf4 46be e136 053e e5ee 91bd 83f9 8c3d
00000270: 705e 8bbd ee10 173d 56af 46be fa8d 60bd
00000280: 2b8d 183e dfd7 d33c 4e04 0f3e 48bf 7ebc
00000290: d873 923d a8bb 423d a52e 7c3c 62fc 14be
000002a0: 55c2 4cbd b4c0 1a3e 73c2 de3d 6f6f 90bd
000002b0: bfa1 1cbd f9e4 9fbd 0cb2 943e 96f7 03be
000002c0: 7d25 b13d 47dc 853d af1f 473d c010 17bd
000002d0: 7b27 94bd 563d 023e 31e3 fbbc 8717 0ebe
000002e0: 793f 5cbc 9a22 0e3e 72e1 c0bd 0cf4 b7bd
000002f0: 67bf 4ebd a611 f3bc f758 b3bd c439 96bc
00000300: 6045 223e 116f 053c 723e babc 9b86 2cbe
00000310: 0890 b4bd 7f16 a1bc 1852 4abe 8869 e23c
00000320: a2e8 60be e72c 82bd 7fc5 02bd 553c debd
00000330: 2a1f 03be 963d 47be d0ef 83bd f10f d13d
00000340: 85a8 893d 72ab b23d dce7 083e b794 e13c
00000350: db0d 03be a63d 1c3d a0c1 5fbd 9013 b73d
00000360: 1054 063d 8a79 40bd 9716 c53d 89c6 24bd
00000370: 1e93 01be 59bd 083a 7ee1 ec3c b3e8 f83b
00000380: 7c12 82be a0f8 97bc fdfe 8bbc 7cd2 203e
00000390: 96bf 4abd 961b d6bd 47cf e43d 5800 15bd
000003a0: 9c5e 343e a10c 8fbd 6460 513d baed 1e3d
000003b0: 407e cfbc fc87 b6bd 861e 313d abd6 f8bd
000003c0: fb56 36bc 333d 3dbd 0e97 8dbd f9d2 3abe
000003d0: 5a1e cdbd 8dd4 42bd b8dd 46bd 27ed a5bd
000003e0: 2ba3 e63d 31c8 043e 9f42 d7bb ecf6 33bd
000003f0: 2cae b7bd 8b3c e2bd 6f15 6d3e 83d8 f7bd

mixer_blocks.1.mlp_patch.mlp.0.bias f4 [98]
-0.20841713 -0.11084091 -0.11056735 -0.02455025 -0.3073503 -0.31914827 -0.08437992 -0.061210513
0.018145233 0.03847351 -0.10007078 -0.18717784 -0.21718495 -0.013266956 0.024195477 -0.25317326
0.021201642 -0.0140679125 -0.3320772 0.026902232 -0.16346051 -0.051779527 0.035193473 -0.24893042
-0.04745885 -0.15161653 -0.1906974 -0.10748013 -0.09863065 -0.1747969 -0.06772643 -0.0673891
-0.07582605 -0.18764882 0.050889935 -0.14885421 -0.13191637 -0.02351031 -0.19712898 -0.08192705
-0.0971085 -0.2835457 -0.21409868 -0.22305539 -0.28762078 -0.038992573 -0.14360976 -0.19928637
-0.030450784 -0.2518454 -0.07170018 -0.12817192 -0.09019732 -0.085976884 -0.20464045 -0.2371265
-0.11904591 -0.04202737 -0.2036796 -0.3165375 -0.20605007 -0.03597141 -0.14293839 -0.14510609
-0.1963426 0.09386801 -0.0187754 -0.09017727 -0.097649686 -0.12582508 -0.20539169 -0.15937504
-0.00962769 -0.2159259 -0.20996039 -0.05734406 -0.11633764 -0.31232035 -0.21761142 -0.06652532
-0.22008474 -0.061498668 0.00587602 -0.18101627 -0.30385295 -0.029776415 -0.14993186 -0.07140805
-0.19546679 -0.21857986 -0.26277137 -0.1921105 -0.053051885 -0.19500278 -0.18912338 -0.15059924
-0.20482248 -0.19559498
00000000: 4d6b 55be 8f00 e3bd 2371 e2bd 9b1d c9bc
00000010: 055d 9dbe 6767 a3be 61cf acbd e0b7 7abd
00000020: 50a5 943c 6696 1d3d e9f1 ccbd 8cab 3fbe
00000030: bb65 5ebe a65d 59bc 9835 c63c ed9f 81be
00000040: 11af ad3c 1a7d 66bc 0606 aabe 1262 dc3c
00000050: 3162 27be c516 54bd 0827 103d 9ee7 7ebe
00000060: 3664 42bd 5d41 1bbe 2e46 43be 8b1e dcbd
00000070: defe c9bd f5fd 32be 28b4 8abd 4c03 8abd
00000080: b04a 9bbd 0327 40be f771 503d 3d6d 18be
00000090: 1615 07be b298 c0bc 2edc 49be 5fc9 a7bd
000000a0: d2e0 c6bd e72c 91be af3c 5bbe a268 64be
000000b0: 0843 93be adb6 1fbd 700e 13be ba11 4cbe
000000c0: ec73 f9bc e1f1 80be 8bd7 92bd 803f 03be
000000d0: 5fb9 b8bd a614 b0bd 448d 51be 4ad1 72be
000000e0: 58ce f3bd e424 2cbd 6391 50be 3411 a2be
000000f0: cafe 52be c256 13bd 715e 12be b196 14be
00000100: 090e 49be df3d c03d dece 99bc dcae b8bd
00000110: 8ffc c7bd 4ad8 00be 3352 52be 3633 23be
00000120: 75bd 1dbc ae1b 5dbe dbff 56be 9be1 6abd
00000130: 6e42 eebd 74e8 9fbe 87d5 5ebe 6d3e 88bd
00000140: e55d 61be 07e6 7bbd a18b c03b 545c 39be
00000150: 9d92 9bbe abed f3bc bd87 19be 623e 92bd
00000160: 7228 48be 66d3 5fbe f889 86be 9db8 44be
00000170: ef4c 59bd cfae 47be 8fa9 41be b036 1abe
00000180: fcbc 51be 0d4a 48be
