NN_Func_Approx/Dimension_Encoding_MLP/Vision_DimMixer/models/patch_mixer_fmnist_v0.pth (torch, 274781 bytes, 62 tensors)

mixer_blocks.0.ln0.weight f4 [16]
0	0x3f535272	0.82547677
1	0x3f83f82e	1.0310113
2	0x3f7da4db	0.99079674
3	0x3f7a60f3	0.9780418
4	0x3f7ac917	0.9796309
5	0x3f88b3c6	1.0679862
6	0x3f887867	1.0661744
7	0x3f7c5c88	0.9857869
8	0x3f859df4	1.0438828
9	0x3f992dab	1.1967062
10	0x3f84ec37	1.0384587
11	0x3f85e8b9	1.0461646
12	0x3f6f4877	0.9346995
13	0x3f871b3e	1.0555189
14	0x3f8de7ec	1.1086402
15	0x3f80664a	1.0031216

mixer_blocks.0.ln0.bias f4 [16]
0	0xbda2593f	-0.079271786
1	0xbdcfdb96	-0.101493046
2	0x3ca520cf	0.020157246
3	0xbdbc65ce	-0.09199105
4	0x3c11cbfa	0.008898729
5	0xbc9d637f	-0.019212482
6	0xbc30a64a	-0.010781834
7	0x3d8be07a	0.06829925
8	0xba5a7ae7	-0.0008334354
9	0x3d564233	0.052309226
10	0xbddb28a0	-0.10701108
11	0xbe0a06e0	-0.13479185
12	0xbdf01efe	-0.11724661
13	0xbd2a40bb	-0.041565638
14	0x3d181b30	0.037135303
15	0xbcf83361	-0.030297937

mixer_blocks.0.mlp_patch.mlp.0.weight f4 [32, 16]
0	0xbd0d8533	-0.034550857
1	0xbe1919ab	-0.14951198
2	0xbe53e2f8	-0.2069205
3	0x3e45d58c	0.19319743
4	0x3e534c53	0.20634584
5	0xbe0b3f70	-0.13598418
6	0x3e9840aa	0.29736835
7	0x3e48092a	0.19534746
8	0xbd955da1	-0.07293249
9	0x3e22dccd	0.15904541
10	0x3d36591d	0.04451858
11	0x3e4f7e6e	0.20263073
12	0x3b80f6a2	0.003935651
13	0x3e14842f	0.14503549
14	0xbe11104b	-0.14166372
15	0x3bdc0388	0.006714288
16	0xbdb9fd2f	-0.09081494
17	0x3d8330dc	0.064058036
18	0x3c0ff38c	0.008786093
19	0xbde6136b	-0.112341724
20	0x3ea7968a	0.3273204
21	0x3eb1f13a	0.34754354
22	0x3e953499	0.2914169
23	0x3e27b75e	0.16378543
24	0x3da6d69c	0.08146402
25	0xbbd1e3d7	-0.0064053345
26	0x3db0495c	0.08607742
27	0x3e328b40	0.17435932
28	0xbdf0ef2e	-0.1176437
29	0xbe25606b	-0.16150062
30	0xbe8826fe	-0.2659225
31	0xbe327034	-0.17425615
32	0xbd118e07	-0.03553584
33	0xbd6bfe1f	-0.057615396
34	0xbd938abf	-0.07204198
35	0xbdf06b6f	-0.11739241
36	0x3d2d43e2	0.042301066
37	0x3e0249fa	0.12723532
38	0xbe056ecb	-0.13030545
39	0xbdc78fd1	-0.09744228
40	0x3cca51a3	0.02469713
41	0x3d5789a6	0.052621506
42	0x3d500072	0.050781675
43	0xbbc0c136	-0.0058824075
44	0x3d118b3c	0.035533175
45	0xbd89114d	-0.06692753
46	0xbd3ead0e	-0.046551757
47	0xbe57b880	-0.21066475
48	0xbdd32ee1	-0.10311676
49	0x3dbd11a6	0.09231882
50	0x3dd5741f	0.10422539
51	0x3e914153	0.2837015
52	0xbe1771f7	-0.14789568
53	0xbd3eacd6	-0.046551548
54	0x3d08144c	0.03322248
55	0xbe55e4a8	-0.20888007
56	0xbe8838e1	-0.26605895
57	0x3e282d56	0.16423544
58	0x3e427a8c	0.1899206
59	0x3d2e137a	0.042499043
60	0xbcc508c5	-0.024052033
61	0x3d09ec96	0.03367289
62	0xbdaccd09	-0.08437545
63	0x3e5ede39	0.21764459
64	0x3e12f9e4	0.14353138
65	0x3e804fcb	0.25060877
66	0x3e0d977a	0.13827315
67	0x3cd7d3ff	0.026346205
68	0x3e744c31	0.2385719
69	0xbca10b53	-0.01965872
70	0xbe17b9f0	-0.14817023
71	0xbde3fb9a	-0.111319736
72	0xbd958f7a	-0.073027566
73	0xbeaa9095	-0.33313432
74	0x3dd885e2	0.10572411
75	0x3e2e987e	0.17050359
76	0xbe03590c	-0.12826937
77	0x3d6db05c	0.058029518
78	0xbcefa877	-0.029255135
79	0xbe4a51e4	-0.19757801
80	0xbd789998	-0.060693353
81	0xbe8fa437	-0.28054973
82	0x3d500a93	0.050791334
83	0x3e09e004	0.13464361
84	0x3d12c9af	0.03583687
85	0xbe5e5826	-0.21713313
86	0xbe1d5699	-0.15365066
87	0x3cce1d81	0.025160553
88	0xbdbd64bb	-0.092477284
89	0xbca156af	-0.019694654
90	0xbe11922f	-0.14215921
91	0xbd9dcbce	-0.07704888
92	0xbded9d8c	-0.11602315
93	0xbecf36f2	-0.40471607
94	0x3d77cfd4	0.060500935
95	0x3e3d8532	0.18507841
96	0x3ddd5f01	0.10809136
97	0x3d328d7b	0.043591958
98	0x3d9a990f	0.07548725
99	0x3d8309a1	0.06398321
100	0x3bd693a9	0.006548364
101	0x3d0f1fc4	0.034942403
102	0xbe832774	-0.25616038
103	0x3ed6a050	0.41919184
104	0x3e4f20fe	0.2022743
105	0xba0c61d4	-0.00053551537
106	0xbe727334	-0.23676759
107	0x3e474484	0.1945973
108	0x3db32ff6	0.08749382
109	0x3e83f484	0.25772488
110	0xbed46dc2	-0.4148999
111	0x3e40d020	0.18829393
112	0xbd345ff8	-0.044036835
113	0x3d6be172	0.05758805
114	0xbdc1ce23	-0.094631456
115	0xbdedf000	-0.11618042
116	0x3ddf003e	0.10888718
117	0xbd8ff43b	-0.07029005
118	0xbd9aac06	-0.07552342
119	0xbc07b6ba	-0.0082833115
120	0xbbb55160	-0.0055333823
121	0xbe03285f	-0.12808369
122	0x3e7540b8	0.2395047
123	0x3d8b1fda	0.067931846
124	0xbdd121af	-0.10211503
125	0xbe036f09	-0.12835325
126	0x3d30ed4f	0.043195065
127	0x3e40a413	0.1881259
128	0x3e445b92	0.19175556
129	0x3e565e65	0.20934446
130	0xbe8ccab2	-0.27498394
131	0xbe472438	-0.1944741
132	0x3d951679	0.07279677
133	0x3e167549	0.14693178
134	0x3e05da34	0.13071519
135	0xbeb9f108	-0.36316705
136	0xbce115ee	-0.027476277
137	0xbcb69f5a	-0.022292782
138	0x3d4f0854	0.05054505
139	0xbde6faa8	-0.11278278
140	0xbd5d2ee6	-0.053999804
141	0xbd67f784	-0.056632534
142	0xbe1018bc	-0.14071935
143	0xbe873cd4	-0.26413596
144	0x3db3a3a3	0.087714456
145	0x3e8ec61d	0.27885523
146	0xbeda39df	-0.42622277
147	0xbd84fdf0	-0.06493747
148	0x3cca6971	0.024708482
149	0x3ead31a2	0.3382693
150	0xbea75398	-0.32680964
151	0xbdef4332	-0.11682738
152	0xbdb22211	-0.08697904
153	0x3de7352a	0.11289437
154	0xbcd6e53d	-0.026232356
155	0xbe072fbf	-0.13201807
156	0x3c8f1f8c	0.017471097
157	0xbdf881a3	-0.12134101
158	0x3e145d42	0.144887
159	0xbdcaaf8b	-0.098967634
160	0xbd698cf7	-0.0570192
161	0xbc4e41d4	-0.012588937
162	0xbe353ff6	-0.1770018
163	0xbe172e53	-0.14763765
164	0xb9035760	-0.00012525683
165	0x3d4ffa28	0.050775677
166	0x3c81327f	0.015771149
167	0xbda4fa2c	-0.08055529
168	0x3d24b3fd	0.040210713
169	0xbda7c3ce	-0.08191644
170	0x3e430b6d	0.19047327
171	0x3e5f5271	0.21808793
172	0x3e53fe76	0.20702538
173	0x3e07b6ca	0.13253322
174	0x3e4164db	0.1888613
175	0x3e450593	0.19240408
176	0x3e345fe1	0.176147
177	0xbd9b4090	-0.07580674
178	0xbe259f1e	-0.1617398
179	0x3e2fa4f5	0.1715277
180	0x3e62c67c	0.22146028
181	0xbe8520be	-0.26001543
182	0x3d512052	0.051056214
183	0xbe0b11d8	-0.13581026
184	0x3e338bad	0.17533751
185	0xbe850ab4	-0.25984728
186	0x3cca04bd	0.024660463
187	0x3e1e6530	0.15468287
188	0x3e8304cc	0.25589597
189	0xbdef894b	-0.116961084
190	0xbd9ba5dc	-0.075999945
191	0xbd9760c6	-0.07391505
192	0x3d2533e7	0.0403327
193	0xbe488c7b	-0.19584839
194	0x3d7af0bf	0.06126475
195	0x3d390dc4	0.045179144
196	0xbe4010aa	-0.18756357
197	0x3e083cc6	0.13304433
198	0xbd33ff36	-0.04394456
199	0x3e389c7c	0.18028444
200	0x3e05386d	0.13009806
201	0x3df03009	0.11727912
202	0x3ce0aca6	0.027426075
203	0x3dac93f9	0.08426661
204	0xbd61abb9	-0.055095408
205	0x3de4bf45	0.11169294
206	0x3e9330ed	0.28748265
207	0x3d35ace1	0.044354323
208	0xbbb71e11	-0.005588301
209	0x3e1f7e40	0.15575504
210	0x3de52394	0.111884266
211	0x3db05c94	0.08611408
212	0x3c7bf67d	0.015378592
213	0x3e42b353	0.1901372
214	0x3dbbf629	0.09177811
215	0x3da8ab5b	0.082358085
216	0xbd7804f8	-0.060551614
217	0x3de23c43	0.1104665
218	0x3dfe7ba0	0.12425923
219	0x3de5390f	0.11192524
220	0xbe19bc8d	-0.15013333
221	0x3e685e57	0.22692238
222	0x3e86fb29	0.26363495
223	0x3da0b0b3	0.07846203
224	0x3d9d4d0c	0.07680711
225	0x3e7bb2b1	0.24579884
226	0x3e4bf6ec	0.19918412
227	0xbdad2612	-0.08454527
228	0xbe8e9878	-0.278507
229	0xbe852eb9	-0.2601221
230	0xbe871106	-0.26380175
231	0xbcc55fd1	-0.02409354
232	0xbd462210	-0.04837233
233	0xbae0e172	-0.0017157032
234	0x3e6fdc6c	0.23423928
235	0x3d03e573	0.03220124
236	0x3e441789	0.19149603
237	0x3d8af46f	0.06784903
238	0xbddc9cec	-0.10772118
239	0x3e843790	0.2582364
240	0x3e8c7c93	0.27438793
241	0x3e100167	0.14063035
242	0xbda4dd00	-0.08049965
243	0x3e669edb	0.22521536
244	0xbe2fa085	-0.17151077
245	0xbe251e02	-0.16124728
246	0xbe089d9d	-0.13341375
247	0xbe8b858b	-0.27250323
248	0xbe1018c4	-0.14071947
249	0xbe51d056	-0.2048963
250	0xbe15f45d	-0.14643998
251	0xbe3aad52	-0.18230179
252	0x3e3c1dae	0.18370697
253	0x3dde96c1	0.10868598
254	0xbd710f2d	-0.058852363
255	0x3cf16521	0.029467167

mixer_blocks.0.mlp_patch.mlp.0.bias f4 [32]
0	0x3db6d66d	0.08927617
1	0xbe905e71	-0.28197053
2	0xbc87eb5a	-0.016591717
3	0xbd065b06	-0.03280165
4	0x3da919d5	0.0825688
5	0xbd929fab	-0.071593605
6	0xbe45f578	-0.1933192
7	0x3e54026e	0.20704052
8	0xbd5236b1	-0.05132169
9	0xbe353add	-0.17698236
10	0xbd810e55	-0.06301562
11	0x3d704b9a	0.05866585
12	0x3d82ee43	0.06393101
13	0xbd85e7d8	-0.06538361
14	0xbe483967	-0.19553147
15	0x3dc97c0b	0.098381124
16	0xbe6dc96b	-0.23221366
17	0xbdc4c2d4	-0.09607473
18	0xbe9f5cc6	-0.31125468
19	0xbe0ff1d4	-0.14057094
20	0x3df492b0	0.11942041
21	0xbddaf2fb	-0.10690876
22	0xbd8a8378	-0.06763357
23	0xbe1021e4	-0.14075428
24	0x3dc8b3ca	0.09799917
25	0xbe4fa02c	-0.20275944
26	0xbd5303a3	-0.05151714
27	0xbe47d476	-0.19514641
28	0xbe8095f6	-0.2511441
29	0xbcaa900b	-0.020820638
30	0xbe546df6	-0.20745072
31	0xbe49d136	-0.19708714

mixer_blocks.0.mlp_patch.mlp.2.weight f4 [16, 32]
0	0xbdd1f94f	-0.1025263
1	0xbbcd5319	-0.0062660095
2	0xbd46180e	-0.048362784
3	0x3dc8d260	0.09805751
4	0x3e0a520a	0.13507858
5	0x3c5ec418	0.013596557
6	0xbe172b57	-0.14762627
7	0x3d96ca4f	0.07362806
8	0xbe32fdc9	-0.17479624
9	0xbe740ea1	-0.23833705
10	0xbdcc318e	-0.09970389
11	0x3b94c67f	0.004540264
12	0x3d92e285	0.071721114
13	0x3dd90b89	0.10597903
14	0x3d23887d	0.039925087
15	0x3d782249	0.060579572
16	0x3e05444f	0.13014339
17	0x3df88735	0.12135164
18	0x3d5b7f3d	0.05358814
19	0x3e04f631	0.1298454
20	0x3e0f617d	0.14002033
21	0x3dec2514	0.115305096
22	0x3db45ef1	0.08807171
23	0xbd37db20	-0.04488671
24	0xbd9719d7	-0.073779754
25	0xbe1f6128	-0.15564406
26	0xbd9f7e67	-0.07787781
27	0xbd5c952f	-0.05385321
28	0x3a307d1c	0.000673251
29	0x3d3a3ce2	0.04546822
30	0x3d275ebc	0.04086183
31	0x3d45feb0	0.048338592
32	0xbdde9a68	-0.108692944
33	0xbcbb3a45	-0.022854934
34	0xbe037d94	-0.12840873
35	0x3e64bf4e	0.22338602
36	0xbbea6629	-0.0071532917
37	0x3e48fced	0.19627734
38	0x3e172cef	0.14763235
39	0x3e174e38	0.14775932
40	0xbcb899c4	-0.022534259
41	0x3cc0c159	0.023529695
42	0x3dac1079	0.084015794
43	0x3d7c32c8	0.061571866
44	0xbc982366	-0.018571567
45	0x3e7572df	0.23969601
46	0xbe0c1c2d	-0.13682623
47	0xbe09373f	-0.13399981
48	0x3da383d4	0.079841286
49	0xbdcead1f	-0.10091614
50	0x3d9522dd	0.0728204
51	0xbddeb309	-0.10873992
52	0x3dc0a009	0.09405524
53	0x3deade6b	0.11468204
54	0x3b461d2f	0.0030229797
55	0x3dd668e6	0.104692265
56	0x3e8b9cdc	0.27268112
57	0x3e417f4b	0.18896215
58	0xbd43dbc5	-0.04781701
59	0x3e4118cc	0.18857116
60	0xbb1ed76a	-0.0024237284
61	0xbca21a24	-0.019787855
62	0xbe58f298	-0.21186292
63	0xbe4bd6f5	-0.19906218
64	0xbe1f7db0	-0.1557529
65	0xbda14280	-0.07874012
66	0x3d5002da	0.05078397
67	0xbdb8a9d8	-0.0901677
68	0x3d958762	0.07301213
69	0xbc91787e	-0.01775765
70	0xbdf9d069	-0.12197954
71	0xbdfaeb4b	-0.1225191
72	0x3ddd18d5	0.10795752
73	0xbd3c91f2	-0.04603762
74	0xbd4ee02f	-0.050506767
75	0x3dfb0642	0.12257053
76	0xbd834170	-0.064089656
77	0x3dea23d0	0.11432612
78	0xbd81021b	-0.0629923
79	0xbe48342d	-0.19551153
80	0xbd017810	-0.03160864
81	0x3d8939d7	0.06700485
82	0x3e2f0534	0.17091829
83	0xbe3486b6	-0.17629513
84	0xbd99fec0	-0.07519293
85	0xbdc499d9	-0.095996566
86	0xbdfdc91b	-0.123918734
87	0x3db6e2e5	0.089299954
88	0x3dd7f68c	0.10545072
89	0x3d146320	0.036227345
90	0xbe179e0f	-0.14806388
91	0xbc2bc0cf	-0.010482981
92	0x3e1e9a14	0.15488464
93	0xbd931547	-0.07181793
94	0x3de47ae6	0.111562535
95	0x3c0f01f0	0.008728489
96	0x3dc5df31	0.09661711
97	0xbe4844c5	-0.19557483
98	0xbd97b419	-0.07407398
99	0xbdb26661	-0.087109335
100	0x3d19ff16	0.037596785
101	0x3d4e72bc	0.050402388
102	0xbcb332b1	-0.021874757
103	0xbd36f78c	-0.044669673
104	0x3e1680e2	0.14697602
105	0x3dc8b748	0.09800583
106	0xbe6b50f3	-0.22980098
107	0x3b99c8ca	0.0046931254
108	0x3e2959bc	0.16538137
109	0xbdbb17ab	-0.09135374
110	0xbe054e59	-0.13018169
111	0xbccc6a10	-0.024952918
112	0xbdb32f77	-0.087492876
113	0x3db39a44	0.08769658
114	0xbdfd0baa	-0.1235574
115	0xbdcaaabb	-0.098958455
116	0x3df48118	0.11938685
117	0x3dff5f24	0.124693185
118	0x3d3d652a	0.046239056
119	0xbdd9d76b	-0.10636791
120	0x3d31ad05	0.043377895
121	0xbe0bd54b	-0.13655584
122	0xbe49c6eb	-0.19704787
123	0xbd672ad7	-0.05643734
124	0xbdccf1f3	-0.10007086
125	0x3da18bdb	0.078880034
126	0xbe529ea0	-0.20568323
127	0xbd879bca	-0.06621511
128	0x3ca404b5	0.020021776
129	0xbd0f7519	-0.035023782
130	0x3d260f8f	0.04054218
131	0x3d263f3e	0.040587656
132	0xbda2c865	-0.079483785
133	0x3e241798	0.16024625
134	0x3e8a6717	0.27031776
135	0x3cd1f0ad	0.025627458
136	0x3d9e2881	0.07722569
137	0x3e94ec34	0.2908646
138	0xbd8c6876	-0.06855862
139	0x3e0e047a	0.13868895
140	0xbdfea96e	-0.1243466
141	0xbd4879b6	-0.048944198
142	0xbe113646	-0.1418086
143	0x3cf8cb79	0.03037046
144	0x3d4b809e	0.049683206
145	0xbd96b99a	-0.073596194
146	0x3c8f2a60	0.01747626
147	0xbe10743c	-0.1410684
148	0xbdaf5c07	-0.08562475
149	0x3e4ead24	0.20183235
150	0xbdb5ca93	-0.088765286
151	0x3dc88b95	0.09792248
152	0x3d8751a6	0.0660737
153	0x3e08fc7c	0.13377565
154	0xbd87889c	-0.06617853
155	0x3e5c6271	0.21521927
156	0x3dac5eb2	0.08416499
157	0xbe015278	-0.12629116
158	0xbe8a140e	-0.26968426
159	0x3dfe081b	0.1240389
160	0x3e7fe2ae	0.24988815
161	0x3dbb090b	0.09132584
162	0x3d7d5e22	0.06185735
163	0x3e06438b	0.13111703
164	0xbd6fe072	-0.058563657
165	0xbd3f607a	-0.046722867
166	0xbde36bc9	-0.11104543
167	0xbe43f64b	-0.19136922
168	0x3d111ec5	0.035429735
169	0xbce8a967	-0.02840109
170	0x3d8e2d25	0.069422044
171	0xbe6eafe6	-0.23309287
172	0x3c78b1af	0.015179082
173	0xbd1f6729	-0.03891674
174	0x3d11eb05	0.035624523
175	0x3d2d5e54	0.042326286
176	0xbdabf501	-0.0839634
177	0x3d6ec05f	0.058288928
178	0xbd8f2f36	-0.06991427
179	0x3e4fd00c	0.20294207
180	0x3dcd3e11	0.10021604
181	0xbbca016a	-0.0061647194
182	0x3e32a9bb	0.1744756
183	0x3df5fb04	0.12010768
184	0x3c15dbf0	0.0091466755
185	0xbe0d9a4f	-0.13828395
186	0x3caa62c0	0.02079904
187	0xbe20c81c	-0.15701336
188	0xbcbe58c3	-0.023235684
189	0x3dcaa0de	0.09893964
190	0x3e60a218	0.21936834
191	0xbd17707a	-0.0369725
192	0xbd45d921	-0.048302773
193	0x3dd75ea3	0.105160974
194	0xbd6d4449	-0.05792645
195	0x3ddc65b5	0.107615866
196	0x3e5e6687	0.21718799
197	0xbddc6097	-0.107606106
198	0xbd16c013	-0.03680427
199	0x3e3c7334	0.18403322
200	0xbcf66c9e	-0.03008109
201	0x3c9f41d1	0.019440563
202	0xbd0ce900	-0.034401894
203	0xbda73130	-0.08163679
204	0x3d939404	0.07205966
205	0x3d8c4dad	0.06850753
206	0x3d32e1e9	0.043672476
207	0x3e052cda	0.13005391
208	0x3defe892	0.11714281
209	0x3c4e6bd6	0.012598952
210	0xbd9f279f	-0.07771229
211	0xbd1a0850	-0.037605584
212	0xbe137a0a	-0.14402023
213	0xbe11c1be	-0.14234063
214	0xbe2ea248	-0.17054093
215	0xbdcb68db	-0.09932109
216	0xbe0ceb65	-0.13761671
217	0xbdca00aa	-0.09863408
218	0xbd7910e3	-0.06080712
219	0x3dc3f238	0.09567684
220	0xbc90bf26	-0.017669272
221	0x3e4d5d17	0.20055042
222	0x3d077f13	0.03308017
223	0x3debe055	0.11517397
224	0x3d182b0b	0.037150424
225	0xbdb1dc32	-0.08684577
226	0xbda7906b	-0.081818424
227	0xbcdf1e09	-0.027236002
228	0xbe294f00	-0.16534042
229	0xbe4cca35	-0.19999011
230	0xbd43a4ca	-0.047764577
231	0x3c376786	0.0111941155
232	0x3e331ca0	0.17491388
233	0xbe730a2f	-0.23734353
234	0x3e39183c	0.18075651
235	0xbe276ea6	-0.16350803
236	0xbc05ff29	-0.008178511
237	0x3d91d494	0.07120624
238	0x3e037217	0.1283649
239	0x3e3df81a	0.18551674
240	0xbdfb7bbf	-0.12279462
241	0x3b7af38f	0.0038292145
242	0xbe9cabe7	-0.305999
243	0xbdc2ec5f	-0.095177405
244	0xbe09a30f	-0.13441108
245	0xbd5b611e	-0.053559415
246	0xbd9edf5c	-0.07757446
247	0x3d87bacd	0.06627426
248	0xbd8a7a7e	-0.06761645
249	0xbda3f9b6	-0.08006613
250	0x3d566182	0.052339084
251	0xbc85015a	-0.016235996
252	0x3d9584f0	0.073007464
253	0x3dc953f3	0.09830465
254	0x3d8503b4	0.06494847
255	0xbe65bb52	-0.22434738

mixer_blocks.0.mlp_patch.mlp.2.bias f4 [16]
0	0x3d85af55	0.065275826
1	0xbdfaf404	-0.122535735
2	0x3dae12cb	0.08499678
3	0xbdf0a38c	-0.11749944
4	0xbe10a6ee	-0.14126179
5	0x3d12148e	0.035664134
6	0x3b158f13	0.0022820875
7	0xbbd4650c	-0.0064817723
8	0x3c2684d0	0.010163501
9	0xbd929481	-0.07157231
10	0xbe105bd8	-0.14097536
11	0x3dc1c07a	0.0946054
12	0x3db67d1c	0.089105815
13	0xbd8d007c	-0.06884858
14	0x3dbe1841	0.0928197
15	0x3e06d57a	0.13167372

mixer_blocks.1.ln0.weight f4 [49]
0	0x3f7581e0	0.959013
1	0x3f6ae9de	0.91763103
2	0x3f7c98f5	0.98670894
3	0x3f7d5771	0.9896155
4	0x3f73fa64	0.9530394
5	0x3f7fb9b6	0.9989275
6	0x3f8ce4d8	1.1007338
7	0x3f791732	0.9730102
8	0x3f684f29	0.9074579
9	0x3f8758d7	1.0573987
10	0x3f70fb75	0.9413369
11	0x3f85ef6d	1.0463692
12	0x3f8211ba	1.016166
13	0x3f8a57d3	1.0808052
14	0x3f7cca16	0.9874586
15	0x3f8198c7	1.0124749
16	0x3f6f5e72	0.9350349
17	0x3f768453	0.9629566
18	0x3f62a9ee	0.8854054
19	0x3f7bc68b	0.9834983
20	0x3f761b69	0.96135575
21	0x3f6df806	0.9295658
22	0x3f852ab3	1.0403656
23	0x3f85b0e9	1.0444614
24	0x3f85b8c8	1.0447016
25	0x3f7ba8df	0.9830455
26	0x3f70663d	0.93906003
27	0x3f87dbe8	1.0613985
28	0x3f812b41	1.0091325
29	0x3f7524c4	0.95759225
30	0x3f667bac	0.9003246
31	0x3f8102fb	1.0079035
32	0x3f7f6283	0.9975969
33	0x3f6665ee	0.8999928
34	0x3f651c4e	0.89496315
35	0x3f64ec29	0.8942285
36	0x3f708ecc	0.9396789
37	0x3f7c020d	0.9844063
38	0x3f5f9945	0.87343246
39	0x3f633abe	0.8876151
40	0x3f80e466	1.0069702
41	0x3f7ee606	0.9956974
42	0x3f718d37	0.943561
43	0x3f77861a	0.96689
44	0x3f77cf72	0.9680091
45	0x3f7d341a	0.98907626
46	0x3f634a18	0.88784933
47	0x3f71b661	0.94418913
48	0x3f786f0f	0.9704446

mixer_blocks.1.ln0.bias f4 [49]
0	0xbd34379a	-0.04399834
1	0x3def2652	0.11677231
2	0x3ddc7e10	0.10766232
3	0xbe028911	-0.12747599
4	0xbd84ca9c	-0.06483957
5	0xbe0fa1fa	-0.14026633
6	0xbdcdaf17	-0.10043161
7	0xbd47ac33	-0.048748206
8	0xbdb68446	-0.08911948
9	0xbdb200b5	-0.08691541
10	0xbde0ae4d	-0.10970745
11	0xbe408cf7	-0.18803774
12	0x3db1b456	0.086769745
13	0xbc3d3548	-0.011548348
14	0xbd2307eb	-0.039802473
15	0x3d195b95	0.037440855
16	0xbd5b486b	-0.05353586
17	0x3d5adc4b	0.053432744
18	0xbda44614	-0.08021179
19	0xbe0bb35d	-0.1364264
20	0xbce5e445	-0.028062949
21	0xbb9417f1	-0.0045194556
22	0x3b2dd077	0.002652196
23	0xbcb8b7a8	-0.022548512
24	0xbced0fb9	-0.028938161
25	0xbd89fb2b	-0.067373596
26	0x3e6d35fd	0.23165126
27	0x3d9ac9d5	0.07558028
28	0x3c2a4cfd	0.010394332
29	0xbc58eed4	-0.013240535
30	0xbd8fdf10	-0.07024968
31	0xbe0835d0	-0.13301778
32	0xbcd4ac9d	-0.025961215
33	0x3d93e9f5	0.07222358
34	0x3e2aadcd	0.16667862
35	0x3b9c9e7a	0.004779634
36	0x3bd1d8b4	0.006404007
37	0xbd641a1d	-0.055688966
38	0x3d182134	0.03714104
39	0xbdde2822	-0.108474985
40	0x3a8ce7ed	0.0010750272
41	0x3e0836be	0.13302132
42	0xbd946f04	-0.07247737
43	0xbd097b46	-0.03356483
44	0xbe3d74c5	-0.18501575
45	0xbb8b9d09	-0.0042606634
46	0xbd75bfe5	-0.059997458
47	0xbc6a6f9e	-0.014308838
48	0x3e93b81c	0.28851402

mixer_blocks.1.mlp_patch.mlp.0.weight f4 [98, 49]
0	0x3de55d01	0.1119938
1	0xbda20baf	-0.07912385
2	0xbc35c97c	-0.011095401
3	0x3d6c6746	0.057715677
4	0x3d95ab46	0.073080584
5	0x3df9ef4a	0.12203844
6	0x3dd0aef4	0.1018962
7	0xba4fbcb5	-0.0007924543
8	0x3d9bdc82	0.07610418
9	0xbc4b6b92	-0.0124157835
10	0x3e469e40	0.19396305
11	0xbc3b8d77	-0.011447302
12	0xbc93f505	-0.01806117
13	0x3cddc343	0.027070647
14	0xbda7630a	-0.08173187
15	0xbe14126b	-0.14460151
16	0xbd14dc48	-0.03634289
17	0x3d81aea7	0.063321404
18	0x3c73041b	0.014832522
19	0xbe296fcc	-0.16546553
20	0x3dcc2dbf	0.09969663
21	0x3ddc8c11	0.10768903
22	0xbd3082df	-0.04309356
23	0x3e2518a5	0.16122682
24	0x3dd39567	0.103312306
25	0x3b0b5a42	0.0021263515
26	0xbc92b714	-0.017909564
27	0xbd865a2e	-0.06560169
28	0x3b8acc8b	0.004235809
29	0xbe010687	-0.12600146
30	0xbd96a422	-0.073555246
31	0xbe06725e	-0.13129565
32	0xbd09ee02	-0.033674248
33	0xbdea7f68	-0.11450082
34	0x3d669035	0.05628987
35	0xbdce0baa	-0.100608185
36	0x3d1ed1d7	0.038774338
37	0xbdd02aa6	-0.101643845
38	0x3c871762	0.016490642
39	0xbd91372a	-0.070906
40	0xbe6706ff	-0.22561263
41	0x3d83f6ed	0.06443582
42	0xbe0ef1ac	-0.13959378
43	0xbce02768	-0.02736254
44	0xbd8d9882	-0.06913854
45	0xbe170a7c	-0.14750093
46	0x3c42e2bb	0.011894877
47	0xbde81eae	-0.11333977
48	0x3d702c5b	0.05863605
49	0x3d8b4728	0.06800681
50	0xbdbdfdea	-0.09276946
51	0x3d03d111	0.032181803
52	0x3d0af9ed	0.033929754
53	0xbcf8a78d	-0.030353332
54	0xbcaf2edb	-0.021384647
55	0x3dc966a9	0.09834034
56	0x3af76261	0.0018873924
57	0xbc894a66	-0.016759109
58	0xbda65719	-0.08122081
59	0x3dbf7ee9	0.09350378
60	0x3e897c79	0.26852778
61	0xbd9be0cc	-0.07611236
62	0x3d90d15a	0.07071181
63	0xbd794be4	-0.06086339
64	0x3d031675	0.03200384
65	0xbe4131c4	-0.1886664
66	0x3c5d35e3	0.013501617
67	0x3e39f0ed	0.18158312
68	0xbb048a55	-0.0020224054
69	0x3db98d90	0.09060204
70	0xbd1ca84a	-0.03824643
71	0x3ce3d63b	0.027812114
72	0x3da1d70a	0.079023436
73	0xbd7231da	-0.059129573
74	0xbd7166a9	-0.058935795
75	0xbd8b99b6	-0.068164274
76	0xbdbf0004	-0.09326175
77	0x3e0d95bf	0.13826655
78	0xbdb561b7	-0.08856528
79	0xbcddb50c	-0.027063869
80	0xbc724fb4	-0.0147895105
81	0x3cca2175	0.024674157
82	0xbd93fec5	-0.07226328
83	0xbd1b1efc	-0.037871346
84	0xbe090881	-0.1338215
85	0x3e002532	0.12514189
86	0xbc5bd37e	-0.013417123
87	0xbdaae58f	-0.08344566
88	0x3e167aaf	0.14695238
89	0xbda88224	-0.08227947
90	0xbe1eaa23	-0.1549459
91	0xbe087ed9	-0.13329639
92	0xbdb9e4e5	-0.09076861
93	0x3d04e352	0.032443352
94	0x3e5f796e	0.21823665
95	0x3d7081ce	0.05871754
96	0xbd991500	-0.074747086
97	0xbce2b3e0	-0.027673662
98	0xbe8639e5	-0.26216045
99	0xbdf27927	-0.11839514
100	0x3caf0572	0.021364901
101	0x3e0c51ef	0.1370313
102	0x3c89944c	0.016794346
103	0x3d1b44e8	0.03790751
104	0xbd11e943	-0.035622846
105	0xbe9b179d	-0.30291453
106	0xbdc1a44f	-0.094551675
107	0x3e81887d	0.25299445
108	0x3dd2509b	0.102692805
109	0x3d55e17f	0.052217003
110	0xbc9d1e38	-0.019179448
111	0xbdcf0edf	-0.10110258
112	0xbe2592a6	-0.16169223
113	0x3ced3790	0.028957158
114	0x3d945328	0.07242423
115	0x3cbadc5e	0.022810157
116	0x3bcc6459	0.0062375483
117	0xbe0e458e	-0.1389372
118	0xbd53eb03	-0.051737797
119	0xbda4866e	-0.08033453
120	0xbd8c4204	-0.06848529
121	0xbdd0c88e	-0.10194503
122	0xbd709076	-0.05873152
123	0x3d57aefa	0.052657105
124	0xbdc68c1f	-0.09694695
125	0x3cb4f74e	0.02209058
126	0xbd7b55a4	-0.06136097
127	0xbe1f3f39	-0.15551461
128	0xbe2941c4	-0.16528994
129	0x3d79ce11	0.060987536
130	0xbdebe4ca	-0.115182474
131	0xbdd2f209	-0.10300071
132	0xbe2ae968	-0.166906
133	0x3d63e3c0	0.05563712
134	0x3e509bea	0.20371976
135	0x3d0f54b4	0.03499289
136	0xbe3586d8	-0.1772722
137	0x3d39480d	0.04523473
138	0x3d5a2429	0.05325714
139	0xbdf7fcb4	-0.12108746
140	0xbd7f37e5	-0.062309165
141	0x3e34818b	0.17627542
142	0x3d560874	0.052254155
143	0xbdf3fede	-0.119138464
144	0x3e475df3	0.19469433
145	0xbd9f107d	-0.07766817
146	0xbc7add60	-0.015311569
147	0x3d75bb4e	0.05999308
148	0x3bc039b7	0.005866255
149	0xbc8c08d2	-0.01709405
150	0xbdafd210	-0.08584988
151	0xbd49d65f	-0.049276706
152	0x3d2f94a5	0.042866368
153	0xbc64414c	-0.013931584
154	0xbd95e7c1	-0.07319594
155	0x3c802aad	0.01564535
156	0x3d3ed4c7	0.04658964
157	0x3d931ae0	0.071828604
158	0x3d853817	0.06504839
159	0x3dd63b0e	0.104604825
160	0xbdebd643	-0.115154766
161	0x3d8c7cd1	0.06859744
162	0x3da0a36b	0.078436695
163	0xbdbf022b	-0.093265854
164	0x3c7c5061	0.015400023
165	0x3e03e59c	0.12880558
166	0x3d6e85f9	0.058233235
167	0xbbd04ead	-0.006357035
168	0xbbd1a542	-0.006397874
169	0xbbb286b5	-0.0054481872
170	0x3d380b2d	0.044932533
171	0x3dc563e1	0.09638191
172	0xbd4c0004	-0.049804702
173	0xbdc111fd	-0.09427259
174	0xbd624857	-0.05524477
175	0xbd9c0b53	-0.076193474
176	0x3dcf9f77	0.101378374
177	0x3ccb1b59	0.024793314
178	0x3e56eb9b	0.20988314
179	0x3c516ddf	0.012782543
180	0x3d989305	0.07449917
181	0x3c968b71	0.018377038
182	0xbcc37260	-0.02385825
183	0x3d0d3be7	0.034480955
184	0x3de4ccb6	0.11171858
185	0xbd40c3a8	-0.047061592
186	0x3e3cf696	0.1845344
187	0x3dd58b38	0.104269445
188	0xbd68b7f3	-0.056816053
189	0x3dcc5da8	0.09978801
190	0x3dc1b03c	0.09457442
191	0x3db48311	0.088140614
192	0x3b9bc667	0.004753876
193	0x3d943735	0.072370924
194	0xbdcedba4	-0.10100487
195	0xbe5e42c4	-0.21705157
196	0xbd45e80d	-0.048317004
197	0x3e540804	0.20706183
198	0xbba5c21e	-0.005058541
199	0x3daa1813	0.08305373
200	0x3d8ca795	0.06867901
201	0x3cd41872	0.025890563
202	0xbce0686d	-0.027393544
203	0xbd0cd48d	-0.03438239
204	0xbcb0ca8b	-0.021580955
205	0xbe217c24	-0.15770012
206	0x3d65339d	0.055957425
207	0xbca05e3a	-0.01957618
208	0xbd43fd36	-0.047848903
209	0xbe10f9f8	-0.14157856
210	0xbe20dbbd	-0.15708824
211	0xbdcd4f21	-0.10024858
212	0xbd52db6c	-0.05147879
213	0x3e16b474	0.14717275
214	0x3d691cd9	0.056912277
215	0x3e5ed43c	0.21760648
216	0xbe02c3eb	-0.1277005
217	0xbe02547d	-0.12727542
218	0x3d4714e9	0.048603926
219	0x3c4bc570	0.0124372095
220	0x3e04dbf3	0.12974529
221	0x3d1573e3	0.03648747
222	0x3d0476c6	0.032339834
223	0xbdda79be	-0.10667752
224	0xbe77983c	-0.24179167
225	0x3d95ca67	0.07313996
226	0xbdd0beea	-0.10192664
227	0x3d5fe58c	0.054662272
228	0x3e570248	0.20996964
229	0xbe0b09b8	-0.13577926
230	0xbd962b22	-0.07332446
231	0xbe37d0f0	-0.17950797
232	0x3c76487f	0.015031933
233	0xbe1a5573	-0.15071659
234	0xbd3e6d06	-0.04649069
235	0x3db0e37c	0.08637139
236	0x3e2d6730	0.16933894
237	0xbe106abf	-0.1410322
238	0xbdfad81d	-0.122482516
239	0x3de446b5	0.11146299
240	0x3d822765	0.0635517
241	0xbc1eccad	-0.009692353
242	0xbc2184bd	-0.009858307
243	0x3e3d2745	0.18472011
244	0xbe8626d1	-0.2620149
245	0x3e05dbbc	0.13072103
246	0x3dc3c06c	0.09558186
247	0xbc53ae95	-0.012920042
248	0x3cd61526	0.026133131
249	0x3dead5ee	0.11466585
250	0xbdba33e1	-0.09091926
251	0x3d1d4283	0.03839351
252	0xbd864d7d	-0.065577485
253	0xbdf18621	-0.11793161
254	0xbdfe61e8	-0.12421018
255	0x3d32e221	0.043672685

mixer_blocks.1.mlp_patch.mlp.0.bias f4 [98]
0	0xbe662b91	-0.22477557
1	0xbe519b4e	-0.204694
2	0x3b42c8e7	0.0029721798
3	0xbe513b47	-0.20432769
4	0xbdb12929	-0.08650429
5	0xbd6f9996	-0.05849608
6	0xbdce958d	-0.10087118
7	0xbe329ea1	-0.17443325
8	0xbe822ca4	-0.25424683
9	0xbdd367ce	-0.103225335
10	0xbd265c55	-0.0406154
11	0xbdbcd8f6	-0.092210695
12	0xbdb6e85c	-0.08931038
13	0xbcc10ed1	-0.023566635
14	0x3cb08918	0.021549746
15	0xbe1f2051	-0.15539671
16	0xbd263cae	-0.040585212
17	0x3d064eb8	0.032789916
18	0xbe319a8a	-0.17344108
19	0xbe3eade6	-0.18621024
20	0x3c548c14	0.01297285
21	0xbdb10d93	-0.08645167
22	0xbc8a0777	-0.016849263
23	0x3c4cff2d	0.0125120105
24	0xbe1a8dc5	-0.15093143
25	0xbdb4a997	-0.08821409
26	0xbdfa3c05	-0.12218479
27	0xbe39cc99	-0.18144454
28	0xbc288ae8	-0.010287024
29	0xbdbf33ad	-0.09336028
30	0xbe4b4ee8	-0.19854319
31	0xbe1f99f4	-0.15586072
32	0xbe733750	-0.23751569
33	0xbe66a29f	-0.22522973
34	0xbd288ada	-0.041148044
35	0xbe151dc3	-0.14562134
36	0xbdf310e0	-0.11868453
37	0xbcec3f83	-0.028838878
38	0xbdd2ac07	-0.10286718
39	0xbd1031dd	-0.035203803
40	0xbe4988e9	-0.19681133
41	0xbe777595	-0.24165948
42	0xbe4bad5b	-0.19890349
43	0x3b1e7612	0.0024179262
44	0xbca4ba05	-0.020108232
45	0xbe0149a5	-0.1262575
46	0xbdec88bb	-0.11549517
47	0xbe09943f	-0.13435458
48	0x3c2ade68	0.010429002
49	0xbcc7f930	-0.024410814
50	0xbe70a5dc	-0.2350077
51	0xbe75f1a5	-0.24017961
52	0xbe0c91f0	-0.13727546
53	0xbe47a043	-0.19494729
54	0xbdd8ea3c	-0.10591552
55	0xbe2541dd	-0.16138406
56	0xbea7b9a8	-0.32758832
57	0xbd9a68d2	-0.07539524
58	0xbe167018	-0.14691198
59	0xbdbc049d	-0.091805674
60	0xbd3b410c	-0.04571633
61	0xbe0a032f	-0.13477777
62	0xbe8443ee	-0.25833076
63	0xbd367fd3	-0.044555496
64	0xbd2d5a26	-0.0423223
65	0xbbad17d2	-0.0052823806
66	0xbe53ef6f	-0.20696805
67	0xbcc1abef	-0.023641555
68	0xbc470870	-0.012148008
69	0xbd62cd4d	-0.05537157
70	0xbdd7858c	-0.10523519
71	0xbdc1097b	-0.094256364
72	0xbe131dfe	-0.1436691
73	0xbe567bfc	-0.20945734
74	0xbe644728	-0.22292769
75	0xbac1f8d0	-0.0014798883
76	0xbe84a374	-0.25905955
77	0x3d0fa137	0.035065856
78	0xbde93ed9	-0.1138894
79	0xbe85de32	-0.26146084
80	0xbd49fdae	-0.049314193
81	0xbbba7ff5	-0.005691523
82	0xbc3c48cf	-0.011491968
83	0xbe1d7cc2	-0.15379623
84	0xbe330f9b	-0.17486422
85	0xbe4c0f3c	-0.19927686
86	0xbe4d62cb	-0.20057218
87	0xbe6e4e3a	-0.23272029
88	0xbe7e7702	-0.24850085
89	0xbd49835f	-0.04919755
90	0xbdd3d073	-0.10342493
91	0xbdc68061	-0.09692455
92	0xbd89246e	-0.066964015
93	0xbe10a6e0	-0.14126158
94	0xbe49631b	-0.19666712
95	0x3bf788c4	0.0075541455
96	0xbd343675	-0.043997247
97	0xbda24aa7	-0.07924395

mixer_blocks.1.mlp_patch.mlp.2.weight f4 [49, 98]
0	0x3c559a64	0.013037298
1	0xbc917a9b	-0.017758658
2	0xbd3e7604	-0.046499267
3	0xbddaacb4	-0.10677472
4	0x3bb444ae	0.0055013513
5	0xbdb9d645	-0.09074072
6	0xbdab46a4	-0.08363083
7	0xbcc97a12	-0.02459434
8	0x3af3740f	0.0018574017
9	0xbc9a17b9	-0.01881014
10	0xbd0caebb	-0.034346323
11	0x3dfd592e	0.12370525
12	0x3d03e201	0.032197956
13	0xbe81e41f	-0.25369355
14	0x3cba2b6d	0.022725785
15	0xbe347324	-0.17622048
16	0xbc540a64	-0.01294193
17	0xbdccb8a6	-0.099961564
18	0x3d2ffa0b	0.04296307
19	0x3da56809	0.08076484
20	0x3e457f06	0.19286737
21	0xbba03a15	-0.0048897364
22	0xbe4d678f	-0.20059036
23	0x3d8ab24d	0.067722894
24	0xbe286bca	-0.16447368
25	0x3dc4e9b9	0.096148916
26	0x3dbbf7cb	0.09178122
27	0x3dbfd6bc	0.09367129
28	0x3de68042	0.11254932
29	0xbbc3ab08	-0.0059713162
30	0x3d416fa3	0.047225606
31	0xbda02569	-0.078196354
32	0x3dcb5620	0.099285364
33	0xbda12ae6	-0.0786951
34	0xbccb5183	-0.024819141
35	0x3d4ddb55	0.050258
36	0x3b87face	0.0041497713
37	0x3dae94fe	0.08524512
38	0x3d947a26	0.072498605
39	0x3c5da02c	0.0135269575
40	0x3daaeaa0	0.083455324
41	0xbda033ff	-0.078224175
42	0x3ae464b5	0.0017425033
43	0x3d0702e8	0.032961756
44	0xbdff24e6	-0.1245821
45	0x3da724c3	0.081613086
46	0x3d814e39	0.06313748
47	0x3d42d392	0.04756505
48	0x3e200bb1	0.1562946
49	0x3d885c56	0.06658237
50	0xbe225a46	-0.15854749
51	0x3d7a1383	0.061053764
52	0x3cfe13e9	0.031015353
53	0x3db6fc4d	0.08934841
54	0xbe0c5e4b	-0.13707845
55	0xbd095fbc	-0.033538565
56	0xbd196bca	-0.03745631
57	0xbd3e1fa6	-0.0464169
58	0xbcf1f1b1	-0.029534193
59	0x3c82eb4b	0.015981337
60	0x3dd15fec	0.10223374
61	0xbe0f6a6c	-0.1400544
62	0x3de1ca04	0.110248595
63	0xbe1ac0c5	-0.15112598
64	0xbdd32243	-0.10309269
65	0xbba8ccf1	-0.005151384
66	0xbd603c2e	-0.05474489
67	0xbd124fb1	-0.03572053
68	0x3d10a670	0.035314977
69	0xbd28987a	-0.041161038
70	0x3cd3da6b	0.025860986
71	0x3b92690d	0.0044680894
72	0xbdb4f031	-0.088348754
73	0x3e11eb46	0.14249906
74	0xbd6d2a00	-0.057901382
75	0xbd165694	-0.03670366
76	0xbe6edd88	-0.23326695
77	0xbe0b4003	-0.13598637
78	0x3e49ecce	0.1971924
79	0xbe01ecc7	-0.1268798
80	0x3bb7dfed	0.005611411
81	0x3ca8e55c	0.02061718
82	0xbd8975a5	-0.06711892
83	0x3cc74d2c	0.02432879
84	0xbad5993f	-0.0016296281
85	0x3d40561d	0.046957124
86	0xbcb25ac8	-0.021771803
87	0xbdbf3141	-0.09335566
88	0x3b2fe1d1	0.0026837478
89	0xbd027517	-0.031849947
90	0x3dacddae	0.084407195
91	0xbde1450d	-0.109994985
92	0x3dfda821	0.12385584
93	0xbbea25b5	-0.0071456083
94	0xbe064939	-0.1311387
95	0xbdc51e20	-0.096248865
96	0xbc8f97ee	-0.0175285
97	0xbe191102	-0.14947894
98	0x3d77d1da	0.060502864
99	0x3d420574	0.04736848
100	0xbcf0bd30	-0.029387087
101	0xbd6451dd	-0.055742133
102	0xbe08e7a0	-0.13369608
103	0xbd3c18ba	-0.04592202
104	0x3ca4e5db	0.020129135
105	0x3e08eea5	0.13372286
106	0xbd38fda7	-0.045163777
107	0xbde2ca08	-0.11073691
108	0x3d9fedd6	0.078090355
109	0x3e299846	0.16561994
110	0x3cb4afb9	0.022056447
111	0x3df6d545	0.12052397
112	0x3e172229	0.14759125
113	0x3df9bae8	0.12193853
114	0x3d63510a	0.055497207
115	0x3e510ea2	0.20415738
116	0xbb9a2ef2	-0.0047053033
117	0x3d459e27	0.04824653
118	0xbc4c8e9a	-0.012485171
119	0x3d928fc7	0.071563296
120	0x3cceab72	0.025228236
121	0x3d2770ef	0.040879186
122	0xbe060fae	-0.13091919
123	0xbd88757f	-0.066630356
124	0xbe12302b	-0.14276187
125	0xbd9b8a1f	-0.07594704
126	0x3dd25ca1	0.10271574
127	0xbe12de08	-0.1434251
128	0x3bf7a57d	0.0075575695
129	0x3de9b751	0.11411918
130	0x3e3e4686	0.1858159
131	0x3d825797	0.06364363
132	0xbd12ab41	-0.03580785
133	0xbcaa27fd	-0.020771021
134	0x3d5b7fb2	0.053588577
135	0x3d24a5ed	0.0401973
136	0xbd6c9417	-0.057758417
137	0xbd104b34	-0.03522797
138	0xbe136e68	-0.14397585
139	0xbc8c8a88	-0.0171559
140	0xbcf23db9	-0.029570447
141	0xbe18460b	-0.1487047
142	0xbaae365f	-0.001329135
143	0x3cc93a95	0.024564067
144	0x3cacda8b	0.021100303
145	0xbd7c9c6c	-0.061672613
146	0xbd778ffc	-0.06044005
147	0xbba2be32	-0.0049665207
148	0x3e2c5733	0.16830139
149	0xbdb5e9dc	-0.08882496
150	0x3d729ee3	0.059233557
151	0x3e036384	0.12830931
152	0x3d87e19e	0.0663483
153	0x3e080899	0.1328453
154	0xbd448845	-0.04798152
155	0x3e529312	0.20563915
156	0xbd2f89a3	-0.04285587
157	0x3e0851ad	0.13312407
158	0xbc57bc2f	-0.013167425
159	0x3d8e8232	0.069584265
160	0xbdb23220	-0.08700967
161	0xbd79f410	-0.06102377
162	0x3d3f5365	0.04671039
163	0x3d25c7d4	0.040473774
164	0xbd915710	-0.07096684
165	0x3d00cda9	0.031446133
166	0x3d8eea94	0.06978336
167	0xbd7c8b75	-0.061656434
168	0xbd53e110	-0.05172831
169	0xbadbf96d	-0.0016782709
170	0x3e029e8e	0.12755796
171	0xbd8a353d	-0.06748436
172	0x3c8bcf3a	0.017066587
173	0x3d56c5ec	0.052434847
174	0x3beda990	0.0072528794
175	0x3d595e6f	0.053068575
176	0x3d3c0f94	0.045913294
177	0xbdb8d35c	-0.090246886
178	0x3e127e01	0.14305879
179	0x3e35efb6	0.17767224
180	0x3ddaa6a7	0.10676318
181	0xbb8c18aa	-0.004275401
182	0xbd6b8908	-0.05750373
183	0xbe666ae0	-0.22501707
184	0x3da57357	0.0807864
185	0x3e1c0f86	0.15240297
186	0xbcb208d0	-0.021732718
187	0x3e1f70f4	0.15570432
188	0x3c6da302	0.014504196
189	0xbda140fd	-0.07873724
190	0x3db31be1	0.08745552
191	0x3d2416ac	0.040060684
192	0xbd463669	-0.048391733
193	0xbd601df4	-0.054716066
194	0xbd397c93	-0.04528482
195	0xbcde35a6	-0.027125191
196	0xbd7d6a1b	-0.06186877
197	0xbdd5f8b7	-0.10447829
198	0xbdf87255	-0.12131182
199	0xbd6ed1b2	-0.05830545
200	0x3e3865a0	0.18007517
201	0x3d4583be	0.048221342
202	0xbd88d9f4	-0.06682196
203	0xbd926e1d	-0.07149909
204	0xbd51f143	-0.051255476
205	0xbd117d3f	-0.035519835
206	0xbe2d3b9c	-0.1691727
207	0x3c2f5f5b	0.010703887
208	0xbcd96b5a	-0.026540447
209	0xbd80cfcf	-0.06289636
210	0x3d9edab4	0.07756558
211	0x3dce22f4	0.100652605
212	0xbd6e4fc1	-0.058181528
213	0x3d44462c	0.047918484
214	0x3bc419f3	0.0059845387
215	0xbc3413ed	-0.010991079
216	0xbd2f78c4	-0.04283978
217	0xbd06ad59	-0.03288016
218	0xbc220910	-0.009889856
219	0x3d9b20be	0.075746045
220	0x3d65e7df	0.056129333
221	0x3d838bbb	0.06423136
222	0xbdde518f	-0.108554
223	0x3b9b4841	0.004738838
224	0xbd442a77	-0.04789206
225	0x3d5f3edf	0.054503318
226	0xbda35740	-0.07975626
227	0xbb0c949e	-0.0021450887
228	0x3d4e6d47	0.050397184
229	0x3d70ac6d	0.058758188
230	0x3dbb3dc6	0.09142642
231	0x3c104498	0.0088054165
232	0x3d67f5b8	0.05663082
233	0xbd4f8b84	-0.05067016
234	0xbd9333ec	-0.07187638
235	0xbddab409	-0.1067887
236	0xbd27d599	-0.040975187
237	0xbda74b9d	-0.08168719
238	0x3d190adc	0.037363872
239	0xbe2ca473	-0.16859607
240	0xbd6f1cd2	-0.058377095
241	0xbc4050b9	-0.011737996
242	0x3c786088	0.015159734
243	0xbd3a292a	-0.045449413
244	0xbe36782e	-0.17819282
245	0xbcd5370b	-0.026027223
246	0xbd4b7de9	-0.049680624
247	0xbe2cf433	-0.1689003
248	0x3d9b9edf	0.07598662
249	0x3cf0b717	0.029384179
250	0xba4d9a93	-0.0007843163
251	0x3dca40e9	0.09875662
252	0xbe79690e	-0.24356481
253	0x3d8879dd	0.066638686
254	0x3dcf378f	0.10118019
255	0x3da92d59	0.082606025

mixer_blocks.1.mlp_patch.mlp.2.bias f4 [49]
0	0x3d847b84	0.06468871
1	0x3d15b789	0.036551986
2	0xbdd88238	-0.10571712
3	0x3cd28b98	0.02570133
4	0xbc107fef	-0.008819564
5	0x3dd6c0d5	0.104859985
6	0x3dd1d660	0.10245967
7	0x3c8e6e40	0.017386556
8	0xbd86c7fd	-0.065811135
9	0x3ce76704	0.028247364
10	0xbc27ac24	-0.010233913
11	0xbe00140d	-0.12507649
12	0xbb91aa87	-0.0044453773
13	0x3d5b059c	0.053472146
14	0x3ddd47fb	0.10804745
15	0xbd296b3b	-0.04136203
16	0x3c8efb9c	0.017453961
17	0xbcfd6cf8	-0.03093575
18	0xbb572221	-0.003282674
19	0xbd21985e	-0.03945195
20	0x3dc14584	0.09437087
21	0x3da44de4	0.08022669
22	0xbda18727	-0.078871064
23	0xbcec825d	-0.028870756
24	0xbd91885a	-0.07106085
25	0x3d2e1f78	0.04251048
26	0x3cc5dc27	0.024152828
27	0xbdba62bb	-0.091008626
28	0x3d4c0e05	0.049818058
29	0xbc413e48	-0.011794634
30	0x3d9de448	0.07709557
31	0xbda03127	-0.07821875
32	0x3d37af5c	0.04484497
33	0xbe09f5f1	-0.13472725
34	0xbc3683af	-0.011139794
35	0xbd9d38cc	-0.07676849
36	0xbceea948	-0.029133454
37	0xbbd272a7	-0.006422359
38	0xbddad228	-0.106846154
39	0xbd55545d	-0.05208241
40	0x3d447e2b	0.047971886
41	0x3d47838c	0.048709437
42	0x3dc779ec	0.097400516
43	0x3d826f72	0.06368913
44	0x3d3c67b4	0.045997337
45	0xbd9f1b87	-0.07768922
46	0xbd7a055c	-0.061040267
47	0xbdfc8522	-0.123300806
48	0xbd763d8c	-0.06011729

mixer_blocks.2.ln0.weight f4 [16]
0	0x3f932f9d	1.1498905
1	0x3f838c3c	1.0277171
2	0x3f894020	1.0722694
3	0x3f87300d	1.0561539
4	0x3f7d2acd	0.98893434
5	0x3f75c0a3	0.95997065
6	0x3f7e1ec3	0.9926569
7	0x3f8c52f9	1.0962821
8	0x3f682763	0.906851
9	0x3f828dc1	1.019951
10	0x3f822e02	1.017029
11	0x3f756091	0.95850474
12	0x3f8355d7	1.0260571
13	0x3f85eca9	1.0462848
14	0x3f807de3	1.0038418
15	0x3f88e27e	1.069412

mixer_blocks.2.ln0.bias f4 [16]
0	0xbccd4039	-0.025055038
1	0x3ce2f12e	0.027702894
2	0xbb6530d3	-0.0034971728
3	0xbc01b4cf	-0.007916643
4	0x3a84f3b3	0.0010143429
5	0xbc8827e7	-0.01662059
6	0xbd01073d	-0.031501044
7	0x3cf5f40f	0.030023603
8	0xbdc9077e	-0.09815882
9	0x3d30d157	0.043168392
10	0xbc329837	-0.010900549
11	0x3d9c4a2f	0.07631337
12	0xbde394c7	-0.111123614
13	0x3d7c8118	0.06164655
14	0xbbeb6051	-0.0071831127
15	0xb9bb8d63	-0.0003577276

mixer_blocks.2.mlp_patch.mlp.0.weight f4 [32, 16]
0	0xbe0d2736	-0.13784489
1	0x3eabefd2	0.33581406
2	0xbe20d9e0	-0.15708113
3	0x3e2223a3	0.15833907
4	0xbe8b47eb	-0.27203307
5	0xbe3b2c68	-0.18278658
6	0xbce17530	-0.0275217
7	0x3eb39be6	0.3507988
8	0xbd882561	-0.066477545
9	0xbe13ae4e	-0.1442196
10	0xbe8b66eb	-0.27226958
11	0xbe2598d1	-0.16171576
12	0x3d32a1ee	0.04361146
13	0xbe290f06	-0.16509637
14	0x3e29e89d	0.16592641
15	0x3de96c84	0.11397651
16	0x3d0c9021	0.03431714
17	0xbd72c3cd	-0.05926876
18	0x3e5fe7b5	0.21865733
19	0x3e27443f	0.16334628
20	0xbd427579	-0.047475312
21	0x3e488661	0.19582511
22	0x3e8211ae	0.25404114
23	0x3ea73a38	0.32661605
24	0x3e03b33d	0.12861343
25	0xbdf3be67	-0.11901551
26	0xbe3d7cd8	-0.18504655
27	0xbe895e9c	-0.26829994
28	0xbd2c1ea2	-0.0420214
29	0x3dfdb7bd	0.12388561
30	0x3de36274	0.11102763
31	0x3e791c3b	0.24327175
32	0x3e505831	0.20346142
33	0xbe819562	-0.25309283
34	0x3d2930b6	0.04130622
35	0x3d2d92da	0.042376377
36	0x3d46f1c3	0.048570406
37	0xbdf55ffe	-0.119812
38	0x3d5fb1be	0.054612868
39	0xbe55f8d4	-0.20895702
40	0xbdde76b7	-0.10862487
41	0x3e758296	0.23975596
42	0x3e500b34	0.20316774
43	0xbe50bb35	-0.20383914
44	0x3d82bbfd	0.06383512
45	0x3d9f5e15	0.077816166
46	0xbde53249	-0.11191232
47	0xbe513e8e	-0.20434019
48	0xbe990ef2	-0.29894215
49	0xbe2389d2	-0.15970543
50	0x3cab8b00	0.020940304
51	0x3e4ada57	0.19809853
52	0xbe743b19	-0.23850669
53	0xbd53c625	-0.051702637
54	0x3d939d55	0.07207743
55	0x3e4ce8bf	0.2001066
56	0x3c032619	0.008004689
57	0xbd8c4a4e	-0.0685011
58	0x3dd440b8	0.103639066
59	0xbe044d87	-0.129202
60	0x3d261abc	0.04055284
61	0x3e06c9c5	0.13162906
62	0x3e0220b9	0.12707795
63	0x3e891d0c	0.26779974
64	0xbe7a4431	-0.24440075
65	0x3e89ca60	0.26912212
66	0xbde1194e	-0.109911546
67	0x3c63f230	0.0139127225
68	0xbcfde04b	-0.03099074
69	0x3e1e79eb	0.15476196
70	0xbdd14225	-0.10217694
71	0xbde1fb3f	-0.110342495
72	0x3d97d51d	0.07413695
73	0xbe8fd225	-0.28090015
74	0xbe3cbc62	-0.18431237
75	0x3dfe702c	0.12423739
76	0x3e192e1b	0.14958994
77	0xbe1557ea	-0.14584318
78	0xbe4bca4d	-0.1990139
79	0x3e12d0fa	0.1433753
80	0x3b868b7d	0.004105984
81	0x3dadb7ab	0.084822975
82	0x3eb36f01	0.35045627
83	0xbd367acb	-0.0445507
84	0xbd3ca6fb	-0.046057682
85	0x3e1ee742	0.15517905
86	0x3e970849	0.2949851
87	0xbe3014fa	-0.17195502
88	0x3dcba3b9	0.09943337
89	0x3c31adcd	0.01084466
90	0xbe01a4c3	-0.12660508
91	0xbe4a9284	-0.19782454
92	0xbdb6413a	-0.0889916
93	0x3e0b421e	0.1359944
94	0x3dfa2d57	0.12215679
95	0xbe7ec3bf	-0.24879359
96	0xbea04282	-0.3130074
97	0x3d42174a	0.04738549
98	0x3e804e0a	0.2505954
99	0xbe63316a	-0.22186819
100	0x3e102294	0.1407569
101	0xbe20807a	-0.1567401
102	0xbe5b338f	-0.21406387
103	0xbe0f1f90	-0.13976884
104	0xbb87865b	-0.0041358895
105	0xbbe888e7	-0.007096398
106	0x3cc78117	0.024353547
107	0x3e2461c6	0.16052923
108	0x3dd5a32b	0.104315124
109	0xbd049764	-0.03237094
110	0xbe550f50	-0.20806623
111	0x3ce3b429	0.027795868
112	0xbe4fdce5	-0.20299108
113	0x3e0d1e10	0.13780999
114	0xbe3544db	-0.17702048
115	0x3daba7bc	0.08381602
116	0x3dda9e18	0.10674685
117	0xbdb16e6c	-0.086636394
118	0x3e36c723	0.17849402
119	0xbe3447e3	-0.17605548
120	0x3be1033e	0.0068668416
121	0x3e18cce2	0.14921907
122	0x3dda73bb	0.10666605
123	0xbe17b645	-0.14815624
124	0x3d9b42d0	0.07581103
125	0xbe9367ec	-0.28790224
126	0xbe052da3	-0.1300569
127	0x3dad66d0	0.084668756
128	0xbd977fe2	-0.073974386
129	0xbe859f78	-0.26098228
130	0xbe5488d0	-0.20755315
131	0x3e660192	0.22461537
132	0xbdc52c7d	-0.09627626
133	0x3daf89f5	0.08571235
134	0xbdbce3da	-0.09223147
135	0x3e7fc695	0.24978097
136	0x3e5781d1	0.21045615
137	0xbcb8113a	-0.022469152
138	0x3db49eb6	0.08819334
139	0xbe39627c	-0.18103975
140	0xbc193b07	-0.009352452
141	0x3e87b3a4	0.26504242
142	0x3be3ca63	0.0069516166
143	0xbe850b31	-0.259851
144	0x3e8100f6	0.25196046
145	0x3d1d34fb	0.038380604
146	0x3e1227d5	0.14273007
147	0xbda98b5c	-0.08278534
148	0xbe6157e0	-0.22006178
149	0x3e390459	0.18068065
150	0xbd3a8c8f	-0.045544203
151	0xbe1049e5	-0.14090689
152	0xbd699e63	-0.057035815
153	0x3cc417da	0.023937155
154	0x3e498993	0.19681387
155	0x3dbf7634	0.09348717
156	0x3cd46eab	0.025931677
157	0xbe723bc3	-0.2365561
158	0xbd973c4a	-0.07384546
159	0x3e3fdfe1	0.18737747
160	0x3ea9beed	0.33153477
161	0x3dd06557	0.10175579
162	0x3e7dbd5e	0.24779269
163	0x3df77234	0.120823294
164	0x3e411c4a	0.18858448
165	0xbe8a2561	-0.26981643
166	0xbe1cf1c0	-0.15326595
167	0xbe300664	-0.17189938
168	0xbe01d684	-0.12679487
169	0x3db08c29	0.086204834
170	0x3e597a68	0.212381
171	0x3de5b3c3	0.112159275
172	0x3e3a61be	0.18201348
173	0xbe963e77	-0.29344532
174	0xbdaa41c5	-0.08313326
175	0x3e93e6e1	0.28887084
176	0x3e37ffb8	0.17968643
177	0x3e3e7b97	0.18601833
178	0xbdc68e58	-0.09695119
179	0x3df76e40	0.120815754
180	0x3e28dc2b	0.16490237
181	0x3e23fe91	0.16015078
182	0xbe820570	-0.25394773
183	0xbe243c79	-0.16038693
184	0x3d7a8de4	0.061170474
185	0x3e04c2a1	0.1296487
186	0x3c334f85	0.010944252
187	0xbe80367d	-0.2504157
188	0x3e7fa5eb	0.24965636
189	0x3e657950	0.22409558
190	0x3cd3b6a6	0.02584393
191	0x3e8bf402	0.273346
192	0x3ea589f3	0.3233181
193	0xbdbd7841	-0.09251452
194	0xbd40752d	-0.046986748
195	0xbbbbb690	-0.0057285503
196	0xbe844a6d	-0.25838032
197	0xbb1c2b1d	-0.0023829408
198	0xbd858008	-0.06518561
199	0x3dca90e3	0.09890916
200	0x3d4d2ec9	0.050093446
201	0x3e935a1b	0.28779683
202	0x3df6da6e	0.12053381
203	0xbda7c47a	-0.08191772
204	0xbdce3822	-0.100693
205	0x3e38a787	0.18032657
206	0xbea2a830	-0.31768942
207	0x3da7b8d8	0.08189553
208	0x3e5620ca	0.20910946
209	0x3d3d08e9	0.046151076
210	0xbe188d84	-0.14897734
211	0xbd6fd63f	-0.05855393
212	0x3c1692e7	0.009190298
213	0x3e1251d9	0.14289035
214	0x3ce744eb	0.028231105
215	0x3e2fbd4c	0.17162055
216	0xbce08b83	-0.027410274
217	0xbe726a56	-0.23673376
218	0x3e6a2cf5	0.22868712
219	0xbe3754e4	-0.17903477
220	0xbd11a7b5	-0.03556033
221	0xbdacbbbc	-0.08434245
222	0xbd98453d	-0.07435081
223	0x3e82b62b	0.25529608
224	0xbe52f1ea	-0.20600095
225	0x3e0a74aa	0.13521066
226	0x3e84d0ca	0.25940543
227	0x3e7b0c75	0.2451647
228	0xbe5338b5	-0.20627101
229	0x3e8f4981	0.27985767
230	0x3d5b38e9	0.05352107
231	0xbdc50a49	-0.09621102
232	0xbd5000e9	-0.050782118
233	0x3d864493	0.06556048
234	0xbe65664e	-0.22402307
235	0x3dac3bbe	0.084098324
236	0x3e26f19d	0.16303106
237	0x3d6bdb9c	0.057582483
238	0xbe7847bb	-0.24246113
239	0x3cc5f304	0.02416373
240	0x3ae52fad	0.0017485522
241	0xbe3a0044	-0.18164164
242	0xbe901ecf	-0.28148505
243	0xbe06a58a	-0.13149086
244	0xba31e2e2	-0.00067858223
245	0x3c8756d1	0.01652089
246	0xbc66483d	-0.014055309
247	0x3e85a59d	0.26102915
248	0x3e320019	0.1738285
249	0xbe1fffbb	-0.15624897
250	0xbe4898d1	-0.19589545
251	0xbe5cd433	-0.21565323
252	0xbe2a1127	-0.16608106
253	0xbe0038ba	-0.1252164
254	0x3d40c72f	0.047064956
255	0xbeae9d61	-0.34104446

mixer_blocks.2.mlp_patch.mlp.0.bias f4 [32]
0	0xbc8e08bd	-0.017338151
1	0x3b82ec67	0.0039954665
2	0xbddf2a78	-0.10896772
3	0xbd4128e0	-0.047158122
4	0xbe706e79	-0.23479642
5	0xbdf2c2c3	-0.11853554
6	0xbe7510ee	-0.2393224
7	0xbe1bf054	-0.15228397
8	0x3deb6f16	0.11495797
9	0x3e4b8b74	0.19877416
10	0xbdd18290	-0.10229981
11	0xbe107429	-0.14106812
12	0xbd84feaa	-0.06493886
13	0x3d92f232	0.07175101
14	0xbe8b99c1	-0.27265742
15	0x3da02a83	0.078206085
16	0xbe22461f	-0.15847062
17	0x3cacc734	0.021091081
18	0x3e19e416	0.15028414
19	0xbe1e8796	-0.1548141
20	0xbe73972e	-0.23788139
21	0x3bda3d5a	0.0066601457
22	0xbddd6af0	-0.10811412
23	0xbe4297de	-0.19003245
24	0xbe05cf41	-0.13067342
25	0x3d264d68	0.040601164
26	0x3d24f25b	0.04027019
27	0xbe34c272	-0.176523
28	0xbe1de54f	-0.15419506
29	0xbe1a74c6	-0.15083608
30	0xbe6c70be	-0.23089883
31	0xbd38b082	-0.045090206
