NN_Func_Approx/Invertible_Flow_NN/practice_0/00.2_net_state_dict.pt (torch, 1747 bytes, 3 tensors)

0.bias f4 [5]
0	0x3d5eb714	0.054373816
1	0x3e6f3444	0.23359782
2	0x3ebe2bfe	0.37142938
3	0x3e94eff6	0.29089326
4	0x3f3148ef	0.6925191

0.weight f4 [5, 2]
0	0xbdbfcf8f	-0.093657605
1	0xbed534b3	-0.4164177
2	0xbf18fd35	-0.59761363
3	0xbed53273	-0.41640052
4	0x3c47fd55	0.012206395
5	0x3f31c91b	0.6944749
6	0x3ec1bc20	0.3783884
7	0xbdce6320	-0.100775
8	0xbe7bd839	-0.24594201
9	0x3e8ded6a	0.27720195

2.bias f4 [2]
0	0x3dc10c09	0.09426124
1	0xbee3023f	-0.4433765
